local/backend/movement_classifier_model.pth (torch, 258605 bytes, 12 tensors)

lstm1.weight_ih_l0 f4 [320, 48]
0	0xbd63ee0e	-0.05564695
1	0xbe178bae	-0.14799377
2	0xbbfac7b7	-0.0076532024
3	0xbdaa5d3e	-0.08318566
4	0xbd2018ad	-0.039086033
5	0x3cbf28c6	0.023334872
6	0x3b0e6d6a	0.0021732696
7	0xbbf99003	-0.0076160445
8	0x3d3d3562	0.046193488
9	0xbe034780	-0.12820244
10	0xbe0bf176	-0.13666329
11	0xbd23d745	-0.04000022
12	0x3dd26968	0.10274011
13	0x3d9c198a	0.07622059
14	0x3dbb7f33	0.09155121
15	0xbd39e7f5	-0.045387227
16	0x3e538750	0.20657086
17	0x3d4e4297	0.050356474
18	0x3e7cb9ae	0.24680206
19	0xbd4c9d85	-0.04995491
20	0x3ddafa8f	0.106923215
21	0x3db656e2	0.0890329
22	0xbda8e859	-0.08247442
23	0x3c80c097	0.015716834
24	0x3d70fce7	0.058834936
25	0x3ded11a9	0.11575634
26	0xbd77059e	-0.06030809
27	0xba224402	-0.00061899435
28	0xbda2caef	-0.07948863
29	0xbdfe3b78	-0.124136865
30	0x3d902a88	0.07039362
31	0xbc1b9256	-0.009495338
32	0x3deb4d26	0.11489324
33	0xbddc5d29	-0.107599564
34	0x3c365e5c	0.011130895
35	0x3b5c73ac	0.0033638282
36	0xbdef2db9	-0.11678643
37	0x3db5d17b	0.08877846
38	0x3d0b023f	0.03393769
39	0x3ddefb7f	0.10887813
40	0x3e103520	0.14082766
41	0xbd1f217d	-0.038850296
42	0xba340dab	-0.0006868492
43	0xbca16032	-0.01969919
44	0x3d96ac80	0.073571205
45	0xbe358129	-0.17725052
46	0xbd1e5bc3	-0.03866173
47	0x3de19cb3	0.11016216
48	0xbc927f99	-0.017883109
49	0x3d4a5663	0.04939879
50	0xbdc8d4b3	-0.09806194
51	0xbd4d88dc	-0.050179347
52	0xbe09948e	-0.13435575
53	0x3db6661b	0.08906194
54	0xbbbb6c4f	-0.0057196985
55	0x3d319cdf	0.043362495
56	0x3cfcf8e6	0.030880403
57	0xbd6b04f2	-0.057377763
58	0xbd4b2732	-0.049597926
59	0x3e023ff9	0.12719716
60	0x3c5784b0	0.013154194
61	0xbe0d60b1	-0.13806416
62	0x3dded822	0.10881068
63	0x3c81a859	0.015827345
64	0x3c509f9c	0.012733366
65	0xbde5a14d	-0.11212406
66	0x3dca3b8a	0.098746374
67	0x3c1d9e32	0.009620236
68	0xbbcaccef	-0.006188981
69	0x3e5a1060	0.21295309
70	0xbc7d51ff	-0.015461444
71	0xbc0cb5c4	-0.008588258
72	0xbdb49d03	-0.0881901
73	0x3da635a8	0.08115703
74	0xbdbbf685	-0.09177879
75	0xbcba4d61	-0.022741975
76	0xbc4128a5	-0.011789476
77	0xbd9e741b	-0.07736989
78	0xbd85ef62	-0.06539799
79	0x3b390054	0.0028228955
80	0x3d9f472b	0.07777246
81	0xbc8a9fdc	-0.01692193
82	0x3d8a79a8	0.06761485
83	0xbc0eff3a	-0.008727843
84	0xbd78912a	-0.060685314
85	0x3d310f7c	0.043227658
86	0x3e340519	0.1758007
87	0xbdbb2677	-0.09138196
88	0xbd1c9155	-0.038224537
89	0xbc9c781d	-0.019100243
90	0xbb366d56	-0.0027836165
91	0xbd976df1	-0.073940165
92	0xbd94df77	-0.07269185
93	0xbcd0d81c	-0.025493674
94	0x3d0e53c0	0.03474784
95	0xbd0973f5	-0.03355785
96	0xbd4903c9	-0.049075875
97	0x3d20333a	0.039111353
98	0xbd6051b5	-0.054765422
99	0xbd46721a	-0.04844866
100	0x3e40f70c	0.18844241
101	0xbb9b8da0	-0.0047471076
102	0xbdc2139b	-0.09476396
103	0x3d659a9e	0.056055658
104	0xbceec734	-0.029147722
105	0xbd9d16fb	-0.07670399
106	0xbd3f3dac	-0.046689674
107	0x3ce075af	0.027399866
108	0xbe40aac4	-0.18815142
109	0x3e36a149	0.17834963
110	0x3c46fcd3	0.012145239
111	0xbdfe25f3	-0.12409582
112	0x3d81de1a	0.06341191
113	0xbd5c6b19	-0.053813074
114	0xbdc0b9e2	-0.09410454
115	0xbcf684ef	-0.030092685
116	0xbcd083c2	-0.025453452
117	0x3b38a62d	0.002817522
118	0x3d1a4827	0.037666466
119	0x3cc11cd2	0.023573313
120	0xbd367e0f	-0.044553813
121	0x3db53c1e	0.08849357
122	0x3d05d8bd	0.0326774
123	0x3df28d7c	0.11843392
124	0x3dcc811c	0.09985563
125	0x3ce6998f	0.028149394
126	0x3cd67b5e	0.026181873
127	0xbd5b5a1d	-0.053552736
128	0xbd1eea05	-0.038797397
129	0x3dbd2c71	0.09236992
130	0xb968b0da	-0.00022191126
131	0x3dd0b808	0.10191351
132	0x3badadd1	0.0053002615
133	0xbe27a92f	-0.16373132
134	0xbdde52df	-0.1085565
135	0xbd3a798a	-0.045526065
136	0xbdabab03	-0.08382227
137	0xbda7e022	-0.08197047
138	0x3d74256e	0.05960601
139	0xbcfda832	-0.03096399
140	0x3cb7fd67	0.022459699
141	0x3d139d54	0.03603871
142	0xbd974754	-0.07386652
143	0xbdad612b	-0.08465799
144	0x3dccac6f	0.099938266
145	0xbda2cfbf	-0.07949781
146	0x3dd26675	0.102734484
147	0x3ddf1a8e	0.10893737
148	0x3b9ec20f	0.004844911
149	0xbd2bd18b	-0.041947883
150	0x3c44a067	0.0120011335
151	0xbc39fb4c	-0.011351418
152	0x3db10909	0.086443014
153	0x3d32fe09	0.043699298
154	0x3c618bb4	0.013766218
155	0x3d335c9e	0.0437895
156	0xbe183eb1	-0.14867665
157	0x3e44bd67	0.19212876
158	0xbd34bb1b	-0.04412375
159	0xbcee3cf6	-0.029081803
160	0xbde39436	-0.11112253
161	0x3e03ecf0	0.12883353
162	0xbe0e50ae	-0.13897964
163	0xbe26d1da	-0.1629099
164	0x3d860ffe	0.06546019
165	0xbdd22aa6	-0.10262041
166	0xbd2a4239	-0.04156706
167	0xbc3869c2	-0.011255683
168	0x3d2d22fe	0.0422697
169	0xbcf0a9d0	-0.029377848
170	0x3e102307	0.14075862
171	0x3dd0afa5	0.101897515
172	0xbd42c6d0	-0.047552884
173	0x3e029b39	0.12754525
174	0x3cdedcd2	0.027204905
175	0x3decd782	0.11564542
176	0x3e033a5e	0.12815234
177	0x3d0a792b	0.03380696
178	0x3d698b94	0.057017878
179	0x3aa36692	0.0012466481
180	0x3de1f7bd	0.110335805
181	0xbdb64d12	-0.08901419
182	0x3da27a9f	0.07933544
183	0xbc83e50d	-0.01610043
184	0xbd92c20f	-0.0716592
185	0xbe0aa95d	-0.1354117
186	0xbd77b4a5	-0.06047501
187	0x3c61c756	0.013780436
188	0xbd79cf39	-0.06098864
189	0x3d252136	0.040314876
190	0x3d8fe10d	0.07025347
191	0xbc032bfd	-0.008006093
192	0xbc8ecd4a	-0.017431874
193	0xbdf1f72a	-0.11814721
194	0xbb9f15cd	-0.004854894
195	0xbdfa4bf3	-0.122215174
196	0xbd29a076	-0.041412793
197	0x3d166d3f	0.03672528
198	0x3ca6d679	0.02036594
199	0x3e03e3a8	0.12879813
200	0xbde8b71f	-0.113630526
201	0x3d5de79c	0.054175958
202	0x3db65c28	0.08904296
203	0xbd5c40c2	-0.053772695
204	0x3cc74db5	0.024329046
205	0x3e14b3d8	0.1452173
206	0x3dc7ea9c	0.09761545
207	0x3e11b4c3	0.14229111
208	0xbd4e6714	-0.05039127
209	0xbc86aa1a	-0.016438533
210	0x3e569611	0.20955683
211	0xbd77e3e6	-0.060520075
212	0xbd9f4170	-0.07776153
213	0x3e199729	0.1499907
214	0xbd637451	-0.05553085
215	0x3db840b6	0.08996718
216	0xbe3d8280	-0.18506813
217	0x3d61bfc8	0.055114537
218	0x3d1a2de8	0.037641436
219	0xbdc5221f	-0.09625649
220	0xbd5ad9b1	-0.053430263
221	0x3d488620	0.048956037
222	0x3e2ce129	0.16882767
223	0x3c925be5	0.017866084
224	0x3d5b2731	0.053504173
225	0x3d84c8bd	0.064836
226	0x3dcbe262	0.099552885
227	0x3ddd18a5	0.10795716
228	0x3dd30c03	0.103050254
229	0x3d02ac8b	0.03190283
230	0x3e003274	0.12519246
231	0x3ce459b8	0.027874812
232	0x3dd9f5b2	0.10642566
233	0xbe359a81	-0.1773472
234	0x3c4e4fbc	0.012592252
235	0x3d7f53c6	0.062335752
236	0x3da399eb	0.07988342
237	0x3cec24f6	0.028826218
238	0xbb8beb65	-0.0042700046
239	0xbd266fa1	-0.0406338
240	0xbd095cb0	-0.03353566
241	0xbd2716c1	-0.040793184
242	0xbacde421	-0.0015708247
243	0x3d757b22	0.05993188
244	0x3e1374b8	0.14399993
245	0xbd628930	-0.055306613
246	0x3d6f7813	0.05846412
247	0xbe7c6dc7	-0.24651252
248	0xbd4da339	-0.05020449
249	0x3d64c498	0.05585155
250	0x3de6fe39	0.11278958
251	0xbddfbe11	-0.10924924
252	0x3d3597db	0.044334274
253	0xbdc21eb5	-0.09478513
254	0xbc1a4b16	-0.009417316
255	0x3b8e0cb9	0.0043350128

lstm1.weight_hh_l0 f4 [320, 80]
0	0x3daf3f9d	0.08557055
1	0x3df44cdf	0.119287245
2	0x3dbcb5c6	0.09214358
3	0xbddbbf0f	-0.10729801
4	0x3dfb6253	0.12274613
5	0x3df41a37	0.119190626
6	0xbe15d2a4	-0.14631134
7	0x3d0ae35f	0.033908244
8	0xbd43638b	-0.047702353
9	0x3e1b4085	0.15161331
10	0x3d046b0e	0.032328658
11	0xbe3b292f	-0.18277429
12	0x3d564def	0.052320417
13	0x3dc6ec54	0.09713045
14	0x3dc5b8ff	0.09654426
15	0x3e00531f	0.12531708
16	0xbe2b11c7	-0.16706
17	0xbd2c73a8	-0.042102486
18	0x3dcfe7cd	0.10151634
19	0xbd34ccd7	-0.044140663
20	0x3e384038	0.17993248
21	0x3d829c4c	0.063774675
22	0x3ae8ffd4	0.0017776438
23	0xbc30a371	-0.010781155
24	0xbcd6b11c	-0.0262075
25	0x3d376042	0.044769533
26	0x3d42d1e5	0.047563452
27	0x3c314c0c	0.010821354
28	0xbd3dbb0e	-0.046320967
29	0xbda62d8d	-0.08114157
30	0x3bad5ccf	0.0052906047
31	0x3d3e0d4f	0.04639941
32	0xbdb77982	-0.08958723
33	0xbd892583	-0.06696608
34	0xbdac7a81	-0.08421803
35	0xbc4ebb53	-0.012617904
36	0x3dcd6ed3	0.10030904
37	0x3cd933eb	0.026514014
38	0xbde48eee	-0.11160074
39	0xba29dc89	-0.00064797007
40	0xbd8459d8	-0.06462449
41	0xbdf128ea	-0.11775382
42	0x3d120c2d	0.035656143
43	0xb912e081	-0.00014007279
44	0xbd3e575e	-0.04647004
45	0x3db5c6f7	0.0887584
46	0x3d586eaf	0.05283993
47	0x3d6a1f63	0.05715884
48	0x3c5f5a61	0.013632388
49	0x3c95e6e0	0.018298566
50	0xbcd3730e	-0.025811698
51	0xbda14b47	-0.07875686
52	0xbe461ad6	-0.19346175
53	0x3df8f554	0.121561676
54	0x3e1244cd	0.14284058
55	0xbd640dc1	-0.05567718
56	0xbc3f331b	-0.011669899
57	0x3d8def48	0.06930405
58	0xbdc1f3d6	-0.09470336
59	0x3e1247d4	0.14285213
60	0xbcd4ab8c	-0.025960706
61	0xbda0fbfa	-0.07860561
62	0x3de9e8a4	0.11421326
63	0x3d4f8aff	0.050669666
64	0x3d9ff2e0	0.078099966
65	0xbe0215d0	-0.12703633
66	0xbe018cce	-0.12651369
67	0x3de7b0f9	0.11313052
68	0xbd3e667f	-0.046484467
69	0x3e362c54	0.17790347
70	0xbc4e4656	-0.012590012
71	0xbe0cebfa	-0.13761893
72	0x3caccac3	0.021092778
73	0xbda7f6d0	-0.082013726
74	0x3b8b695c	0.004254503
75	0xbd26b866	-0.0407032
76	0xbd73845b	-0.059452396
77	0xbd4520b6	-0.0481269
78	0xbdea1c77	-0.114312105
79	0x3e505efb	0.20348732
80	0x3de6b90b	0.11265763
81	0xbdb06d36	-0.0861458
82	0x3db4f381	0.08835507
83	0xbd55a5ea	-0.05216018
84	0xbd7a09a8	-0.061044365
85	0xbd93681d	-0.071975924
86	0xbd410466	-0.047123335
87	0xbda3b2fc	-0.07993123
88	0xbd46c3f3	-0.048526715
89	0xbbae86f8	-0.005326148
90	0x3dc87a41	0.09788943
91	0x3d93632a	0.071966484
92	0x3c54f59e	0.012998013
93	0x3d330f93	0.043716025
94	0x3d13dbc7	0.036098268
95	0x3d3d7d3d	0.046262015
96	0xbcac0c1d	-0.02100187
97	0x3ca8de85	0.020613918
98	0xbd90872f	-0.07057034
99	0x3d62cb31	0.05536956
100	0x3d3fe167	0.04684582
101	0xbcbd2bf5	-0.02309225
102	0xbd44b155	-0.04802068
103	0x3d4c586b	0.04988901
104	0x3d901746	0.07035689
105	0x3dfbe636	0.122997686
106	0x3c11141e	0.008854894
107	0x3e00faa9	0.1259562
108	0xbd77d1df	-0.060502883
109	0x3d9f2a0d	0.077716924
110	0xbda898e2	-0.08232285
111	0x3dcc1650	0.09965193
112	0xbe1c74b2	-0.1527889
113	0xbd8f728b	-0.07004269
114	0xbe42dc0a	-0.1902925
115	0xbc58548d	-0.013203752
116	0x3d13f4ae	0.036122017
117	0xbdcd0733	-0.10011139
118	0xbd8fa2d2	-0.070134774
119	0xb89c0298	-7.439143e-05
120	0xbdd3277f	-0.10310268
121	0x3d161076	0.036636792
122	0xbceb4f89	-0.028724449
123	0x3dbb7078	0.09152311
124	0xbe26b5d4	-0.162803
125	0x3dce8911	0.10084737
126	0xbe411a74	-0.18857747
127	0x3cb685cb	0.022280594
128	0xbd05ace5	-0.03263559
129	0xbc6ce7c3	-0.014459553
130	0x3c808013	0.01568607
131	0xbcc382a6	-0.023866009
132	0xbd88dc1a	-0.06682606
133	0x3dd3830a	0.10327728
134	0xbcc87705	-0.024470815
135	0x3d22f681	0.039785866
136	0xbcd24e79	-0.025672184
137	0xbba957fd	-0.0051679597
138	0x3da99623	0.082805894
139	0xbc200c02	-0.009768488
140	0xbdcc873c	-0.099867314
141	0x3c1e93e3	0.009678814
142	0x3c2d643c	0.01058298
143	0x3dcb8248	0.099369586
144	0xbdbe5c71	-0.092949755
145	0x3d08655d	0.033299793
146	0x3d0f9cd7	0.035061684
147	0x3d937f14	0.072019726
148	0xbdebaf78	-0.115080774
149	0xbcff8d6a	-0.031195361
150	0xbd9c4d14	-0.07631889
151	0xbc80c71e	-0.015719946
152	0x3c9bcaec	0.01901766
153	0x3ae600ab	0.0017547806
154	0x3d565077	0.05232283
155	0x3dcca329	0.09992058
156	0xbc03fcba	-0.00805586
157	0xbd95a58b	-0.073069654
158	0x3c8cc26e	0.017182555
159	0xbc8175cf	-0.015803246
160	0x3ddbcc65	0.107323445
161	0x39609fcc	0.00021421834
162	0x3d0872c0	0.03331256
163	0x3d715b77	0.05892512
164	0xbe0bbe5c	-0.13646835
165	0x3c8d7c6c	0.017271243
166	0xbd8e5ea4	-0.06951645
167	0xbd2c37f3	-0.042045545
168	0x3d8574a5	0.06516389
169	0x3c84c256	0.016205948
170	0xbdba7ba5	-0.091056146
171	0xbd88f792	-0.06687845
172	0xbd44f0df	-0.048081275
173	0x3cce0c3b	0.025152316
174	0x3a8fe896	0.001097935
175	0xbd233edd	-0.039854873
176	0xbe1f4dcc	-0.15557021
177	0x3dccf5c7	0.10007816
178	0xbd991a82	-0.07475759
179	0x3c4a0077	0.012329212
180	0xbd9cf441	-0.07663775
181	0x3dfbb998	0.122912586
182	0x3d13a5fc	0.036046967
183	0x3d4a9344	0.04945685
184	0xbdc343ca	-0.09534414
185	0x3db81bdb	0.08989688
186	0x3d867e8d	0.065671064
187	0x3ca9d82a	0.020732958
188	0x3c8e996f	0.017407147
189	0x3d47da2c	0.04879205
190	0xbd3502d7	-0.04419216
191	0xbbc0d5fa	-0.005884883
192	0xbd017eaa	-0.031614937
193	0xbd1f72fd	-0.03892802
194	0x3c69c78d	0.014268768
195	0xbe1031f1	-0.14081551
196	0xbcaa8968	-0.020817474
197	0xbccae605	-0.024767885
198	0xbd635cdd	-0.055508483
199	0xbd510293	-0.051027846
200	0xbd74edc3	-0.05979706
201	0xbc9b4fca	-0.018958945
202	0x3e25bb59	0.16184749
203	0x3c5fa398	0.013649844
204	0xbd9a4f27	-0.07534628
205	0xbd197e87	-0.03747418
206	0x3d8cebce	0.06880914
207	0x3da63e3d	0.0811734
208	0xbe0257ce	-0.12728807
209	0xbdab9722	-0.08378436
210	0x3d170f5f	0.036879893
211	0xbd681f2e	-0.05667036
212	0x3cde8251	0.02716175
213	0xbd260983	-0.040536415
214	0x3e016751	0.12637068
215	0x3b4d86a3	0.0031360767
216	0x3dc6862c	0.0969356
217	0xbdf0ad11	-0.1175176
218	0x3b15dfd9	0.002286902
219	0xbc1a9be5	-0.009436582
220	0xbe296a4d	-0.16544457
221	0x3dc14214	0.094364315
222	0x3c921e8c	0.017836832
223	0x3e1a3ec5	0.15063007
224	0x3d7fe441	0.06247354
225	0x3dcc0933	0.09962692
226	0xbd0a9849	-0.033836637
227	0x3dd62e13	0.10458007
228	0xbcd3416c	-0.025788032
229	0xbcee3c0b	-0.029081365
230	0xbdcef1be	-0.101047024
231	0x3d310dfa	0.04322622
232	0xbd1bf61f	-0.038076516
233	0x3ddde1d2	0.108340874
234	0x3d5376a3	0.051626813
235	0xbba9cd49	-0.0051819426
236	0x3ba61681	0.0050686006
237	0xbd9c73a9	-0.07639248
238	0xbd973769	-0.073836155
239	0x3d6e2108	0.05813697
240	0xbd995e57	-0.07488697
241	0xbd291778	-0.041282147
242	0xbda3592f	-0.07975995
243	0x3d41f468	0.047352225
244	0xbb922e9b	-0.004461122
245	0xbd5df81e	-0.0541917
246	0x3d91e2f4	0.07123366
247	0x3e3171f7	0.1732863
248	0x3d0677e8	0.032829195
249	0xbe29ac4e	-0.16569635
250	0x3cf8ac3c	0.030355565
251	0x3d1a2d74	0.037641004
252	0xbdcabd56	-0.09899394
253	0xbc90d2b4	-0.017678596
254	0x3d583ac7	0.05279043
255	0x3b8313e2	0.004000173

lstm1.bias_ih_l0 f4 [320]
0	0x3ad99dca	0.0016602811
1	0x3d202998	0.039102167
2	0x3dd77717	0.105207615
3	0x3d54b990	0.05193478
4	0x3dc54f48	0.09634262
5	0x3d6ec821	0.058296327
6	0x3d0c2781	0.03421736
7	0xbbe9b7b1	-0.0071324934
8	0x3dd60dd8	0.10451859
9	0x3e16a586	0.1471158
10	0x3e0fab1b	0.14030115
11	0x3d57ee74	0.05271764
12	0x3dddcbbb	0.10829874
13	0x3cc19cce	0.02363434
14	0xbc9a4875	-0.018833378
15	0xbd13b741	-0.036063436
16	0x3d8733e9	0.06601698
17	0xbd8dc54f	-0.06922399
18	0x3d70d0b6	0.058792792
19	0xbb0b49f6	-0.00212538
20	0x3b7e6420	0.0038817003
21	0xbb8defcf	-0.004331566
22	0x3e00c977	0.12576853
23	0xbd67f073	-0.056625795
24	0x3d5676fd	0.05235957
25	0xbd5174cf	-0.051136788
26	0xbd926c77	-0.07149594
27	0xbda54ae8	-0.08070928
28	0x3ab55b8b	0.0013836486
29	0xbcfa8338	-0.030580148
30	0xbab7e407	-0.001402975
31	0xbd9b5709	-0.0758496
32	0xbd8b4ccc	-0.06801757
33	0x3daeb604	0.085308105
34	0x3d5c5652	0.05379326
35	0xbc98758f	-0.018610744
36	0x3d53408b	0.051575225
37	0x3da365c1	0.079783924
38	0xbd8de746	-0.069288775
39	0x3e3acb0b	0.18241517
40	0xbc77b013	-0.015117663
41	0xbc95a693	-0.018267905
42	0x3daa9ac4	0.083303005
43	0x3deb3dda	0.114864066
44	0xbd4cded4	-0.050017193
45	0xbd7b2cca	-0.06132201
46	0xbba568dd	-0.005047901
47	0xbd1d375f	-0.038382884
48	0x3cbbb94c	0.022915505
49	0xbbfde453	-0.0077481656
50	0xbd812608	-0.06306082
51	0xbd017b24	-0.031611577
52	0x3c19ed7e	0.009395001
53	0x3dd011ca	0.10159643
54	0xbc5caa2a	-0.013468305
55	0xbbe30e6d	-0.00692921
56	0x3dba5eca	0.09100111
57	0x3cec88fe	0.028873917
58	0x3d6cba6a	0.057794966
59	0x3d15c2d2	0.03656275
60	0x3d39547f	0.045246597
61	0x3a19937d	0.0005858464
62	0x3dcb829b	0.099370204
63	0x3db99491	0.0906154
64	0x3dafadf4	0.08578101
65	0xbd633543	-0.055470716
66	0x3d377834	0.04479237
67	0xbd4b6b42	-0.049662836
68	0x3dbbced2	0.09170307
69	0x3b631892	0.0034652096
70	0x3d539840	0.05165887
71	0x3cd3fdb1	0.025877805
72	0x3e568e64	0.20952755
73	0x3d974581	0.07386304
74	0xbdb45df6	-0.08806984
75	0x3dc4beb2	0.09606685
76	0xbd6fe64e	-0.058569245
77	0x3e1fb3f7	0.15595995
78	0x3e1d263a	0.15346614
79	0x3dcdf7e6	0.100570485
80	0x3dd52f3e	0.10409401
81	0xbd1909f6	-0.037363015
82	0x3d768bbd	0.06019186
83	0x3d90c195	0.07068173
84	0x3e0e8f64	0.13921887
85	0xbd1a31d5	-0.03764518
86	0x3df289f7	0.11842721
87	0xbd02935b	-0.03187881
88	0x3d25f087	0.040512588
89	0xbcaa81bf	-0.02081382
90	0x3de16524	0.11005619
91	0x3de4e693	0.11176791
92	0x3dfbc4b1	0.12293375
93	0x3cfd6b2f	0.030934898
94	0xbd00ee9d	-0.03147756
95	0x3d911921	0.07084871
96	0x3ddc7a0c	0.10765466
97	0x3d5dbe20	0.054136395
98	0x3e54cf2c	0.20782155
99	0x3dabdc02	0.083915725
100	0xbd27b32c	-0.040942356
101	0x3c6f0d30	0.0145905465
102	0x3ba6660a	0.005078082
103	0x3db5f180	0.08883953
104	0x3d87bba1	0.06627584
105	0x3d42456c	0.047429487
106	0xbce540f3	-0.027985072
107	0x3d81729e	0.063206896
108	0x3da9a224	0.08282879
109	0x3d51fac5	0.051264543
110	0xbc9aeaea	-0.018910844
111	0xbc0e71ed	-0.008694154
112	0x3db3b5bb	0.08774897
113	0x3d0455f5	0.032308538
114	0x3dc74cef	0.09731471
115	0xbd05ae58	-0.03263697
116	0xbd5432e2	-0.051806338
117	0x3dc1eed8	0.09469384
118	0x397f6187	0.00024355027
119	0x3d808529	0.06275398
120	0x3cad5d57	0.021162672
121	0x3e1b9b17	0.15195881
122	0x3dfeac05	0.12435154
123	0x3dea5b7f	0.11443233
124	0x3d66ad06	0.05631735
125	0x3cc64288	0.024201646
126	0x3cf2d1f9	0.029641138
127	0x3d50f49a	0.05101452
128	0x3d08d585	0.033406753
129	0xbb0b8429	-0.002128849
130	0x3e00a808	0.12564099
131	0x3d33247b	0.043735962
132	0x3da6f1f2	0.08151616
133	0xbc0d406c	-0.008621316
134	0xbd468714	-0.048468664
135	0x3dbdca6e	0.09267126
136	0x3db1247c	0.08649537
137	0x3e13939f	0.14411782
138	0x3d4098da	0.04702077
139	0xbcfc8d34	-0.03082905
140	0x3d54989a	0.051903345
141	0x3e01084f	0.12600826
142	0x3dfddf25	0.12396077
143	0xbdda6ed7	-0.10665672
144	0x3dd8d68e	0.10587798
145	0x3ddbec7f	0.107384674
146	0x3df6bcdf	0.12047743
147	0xbe0cf419	-0.13764991
148	0x3e0c58ff	0.13705824
149	0x3d5e911b	0.054337602
150	0xbd848de3	-0.06472375
151	0xbd1bd638	-0.03804609
152	0xbc139c05	-0.009009366
153	0x3dedb9a7	0.11607676
154	0xbd8871b5	-0.06662313
155	0x3e2d6740	0.16933918
156	0x3c198756	0.0093706455
157	0x3e1cdc36	0.15318379
158	0x3e022f2d	0.12713309
159	0x3d6a72f2	0.057238527
160	0x3c06e837	0.008234075
161	0x3d8c49b1	0.06849993
162	0xbd426d79	-0.047467683
163	0xbdf33252	-0.11874832
164	0x3e1a323f	0.1505823
165	0xbe0f6dcd	-0.1400673
166	0xbe3d5df2	-0.18492869
167	0x3dcb95bd	0.0994067
168	0xba4de1a2	-0.00078537513
169	0x3dd67e1d	0.10473273
170	0x3d5f4894	0.054512575
171	0x3d6df348	0.05809334
172	0xbc2c04e8	-0.010499217
173	0xbd06576c	-0.032798216
174	0xbd3f1636	-0.04665204
175	0x3d213071	0.039352838
176	0x3d3a406c	0.045471594
177	0x3daa6197	0.08319395
178	0x3e2354f1	0.15950371
179	0x3da524f3	0.08063688
180	0xbd4f5d44	-0.050626054
181	0xbdb35578	-0.08756536
182	0xbe00e18e	-0.12586042
183	0x3deb6104	0.11493114
184	0xbe16ec8f	-0.14738677
185	0x3d801882	0.062546745
186	0x3e2b4a8a	0.16727653
187	0x3b6a0bf3	0.0035712689
188	0x3d860dac	0.065455765
189	0xbd553cce	-0.05205994
190	0x3de281fd	0.110599495
191	0xbcb145d7	-0.021639748
192	0xbc8391f0	-0.0160608
193	0xbe3f6057	-0.18689094
194	0x3bca89d2	0.0061809802
195	0xbda1136d	-0.07865033
196	0x3dafcb4a	0.08583696
197	0x3ca63711	0.02028993
198	0xbd0ad2a1	-0.033892278
199	0x3e26780c	0.16256732
200	0xbda14b82	-0.0787573
201	0xbe1e77fa	-0.15475455
202	0xbd5f5e6c	-0.054533407
203	0xbdd0c9a0	-0.10194707
204	0xbe097039	-0.13421716
205	0x3de94405	0.11389927
206	0x3dc2d272	0.095127955
207	0x3cab4156	0.020905178
208	0xbda4a857	-0.08039921
209	0x3bbcddac	0.00576373
210	0x3d760b91	0.060069624
211	0x3d4529d1	0.048135582
212	0x3d69745f	0.056995746
213	0x3b5eb15a	0.0033980221
214	0xbd4a3320	-0.049365163
215	0xbe0545d9	-0.13014926
216	0xbcfd8faa	-0.030952293
217	0x3d676c5d	0.056499828
218	0x3e2712d1	0.16315772
219	0xbd9ee86b	-0.07759174
220	0xbd150062	-0.03637732
221	0xbdb10a27	-0.086445145
222	0x3e0782c7	0.13233481
223	0xbc985f00	-0.018599987
224	0x3dcaf08e	0.099091634
225	0x3ca8241c	0.02052503
226	0x3d953dee	0.07287203
227	0x3d10d412	0.035358496
228	0x3d9d2ef8	0.07674974
229	0xbbde017d	-0.0067750798
230	0xbd975da3	-0.07390907
231	0xbcd0376b	-0.02541705
232	0xbd8947d2	-0.06703152
233	0x3b492952	0.0030694795
234	0x3c9ff110	0.019524127
235	0x3d5c7dff	0.053831097
236	0x3da82b5f	0.082113974
237	0xbdeaec7b	-0.11470886
238	0x3c0e43b0	0.00868313
239	0x3d3847aa	0.04499022
240	0x3dca3dbe	0.09875058
241	0x3b2cb69f	0.0026353968
242	0xbdfafcbf	-0.12255239
243	0xbd38f977	-0.045159783
244	0x3cb44bd4	0.022008814
245	0xbb21e9ef	-0.0024706086
246	0xbd852809	-0.06501777
247	0x3ddd1638	0.107952535
248	0x3d591f49	0.05300835
249	0x3e10770c	0.14107913
250	0xbd39e1d5	-0.045381386
251	0xbd85d693	-0.065350674
252	0x3ceffd39	0.02929555
253	0xbc239185	-0.009983425
254	0x3b98cbfd	0.004662989
255	0x3ca05e56	0.019576233

lstm1.bias_hh_l0 f4 [320]
0	0x3d817562	0.06321217
1	0xbd6a1011	-0.05714423
2	0x3d252762	0.04032076
3	0x3df07935	0.117418684
4	0x3cb1ecdb	0.021719387
5	0x3dcad234	0.09903374
6	0x3d90fdab	0.07079633
7	0xbd8efd5b	-0.069819175
8	0xb93e2a60	-0.00018135598
9	0x3dbb76f0	0.09153545
10	0xbd4f542e	-0.05061739
11	0x3d42a4ed	0.047520567
12	0x3d9a2de9	0.07528288
13	0xbcec66f0	-0.028857678
14	0x3bd13b61	0.0063852523
15	0x3de8c478	0.113655984
16	0x3dae0ff3	0.08499136
17	0x3d3f59dd	0.04671656
18	0xbd364b0d	-0.044505168
19	0x3cda7475	0.02666686
20	0x3daf6247	0.08563667
21	0xbc8c1f2e	-0.017104711
22	0x3e352fac	0.17693967
23	0xbe19af97	-0.15008388
24	0x3e00278e	0.12515089
25	0xbd4f97bb	-0.05068181
26	0x3d8c19ae	0.068408355
27	0x3c50c070	0.012741193
28	0xbd03be2f	-0.032163795
29	0x3e004b95	0.12528832
30	0xbac7c040	-0.001523979
31	0x3d9d767d	0.076886155
32	0x3c8cf340	0.017205834
33	0x3d0c1530	0.034199893
34	0x3d042b7d	0.032268036
35	0x3d8e8d2a	0.06960519
36	0xbca2a883	-0.019855743
37	0xbd894fb6	-0.06704657
38	0xbdcd0993	-0.10011592
39	0x3e1a475a	0.15066281
40	0xbda10df5	-0.0786399
41	0xbd4c0fb5	-0.049819667
42	0x3e0bd414	0.1365512
43	0xbd2748dd	-0.040840972
44	0x3dbced33	0.0922493
45	0x3c43b13b	0.0119441105
46	0x3d6ec275	0.058290917
47	0x3dae6b96	0.08516614
48	0x3e01fa5e	0.12693164
49	0x3d7ec64f	0.06220084
50	0x3d4a3280	0.049364567
51	0xbd4c617f	-0.049897667
52	0xbbf36287	-0.007427517
53	0xbd841574	-0.06449404
54	0xbd3fb3d2	-0.04680235
55	0xbd22fb9f	-0.039790746
56	0x3df039ad	0.11729751
57	0x3e25d887	0.1619588
58	0xbb61812e	-0.0034409272
59	0xbbba4570	-0.005684547
60	0xbd915fa2	-0.07098319
61	0x39f280df	0.00046253853
62	0xb9f27cef	-0.0004625092
63	0x3c2adb66	0.010428285
64	0xbde39591	-0.11112512
65	0x3d8e8265	0.069584645
66	0xbd25af5b	-0.040450435
67	0x3cb73915	0.022366086
68	0x3db8e1c2	0.09027435
69	0xbd3db088	-0.04631093
70	0x3d539fcc	0.051666066
71	0x3c3a436a	0.011368612
72	0x3e3681c3	0.17822938
73	0x3b43a9fe	0.0029855962
74	0x3d97490f	0.07386982
75	0xbd79a977	-0.06095263
76	0x3dc5cdd7	0.096584015
77	0x3d7ff7ff	0.062492367
78	0x3d84665d	0.06464837
79	0xbd83146f	-0.06400382
80	0x3db53d10	0.088495374
81	0x3def94f3	0.11698332
82	0x3e152c38	0.1456765
83	0x3de2ede3	0.110805295
84	0x3c77f469	0.0151339555
85	0x3e2f81f9	0.17139424
86	0xbd841c49	-0.064507075
87	0xbd954dad	-0.07290206
88	0x3e2ca910	0.16861367
89	0x3e165add	0.14683099
90	0x3d57b0d3	0.052658867
91	0x3db6aeb4	0.08920041
92	0x3e372ac1	0.17887403
93	0x3d69c790	0.057075083
94	0x3e10e6dd	0.14150567
95	0x3d69bc8d	0.05706458
96	0xbcdb116e	-0.02674171
97	0xbe00c015	-0.12573273
98	0x3deb4e42	0.11489536
99	0x3cb37ac8	0.021909133
100	0xbd84c129	-0.06482155
101	0x3dfdce77	0.12392896
102	0xbcab2a26	-0.020894121
103	0x3c6f8c5b	0.014620866
104	0xbd9afc65	-0.07567672
105	0x3dd3e779	0.10346884
106	0x3c45c2c6	0.012070363
107	0x3cc3a0f0	0.023880452
108	0x3b8d52b8	0.0043128394
109	0x3dffcc10	0.12490094
110	0xbd315f59	-0.04330382
111	0x3d1e9a37	0.03872129
112	0x3caa0a3d	0.020756835
113	0x3e678302	0.2260857
114	0x3b8f75c8	0.0043780543
115	0x3a28ec17	0.00064438715
116	0xbd5a6b27	-0.053324845
117	0x3cbe5f96	0.023238938
118	0x3d455232	0.04817409
119	0x3d1202dd	0.035647262
120	0xbdb0a65a	-0.08625479
121	0x3df5148f	0.11966812
122	0x3d820750	0.06349051
123	0x3dae01ed	0.08496461
124	0x3cb732ea	0.022363145
125	0xbd1e15e7	-0.038595106
126	0x3c4e2570	0.012582168
127	0x3d8bd645	0.06827978
128	0x3dad3b8f	0.084586255
129	0xbddf4e42	-0.10903598
130	0xbd9a85dc	-0.07545063
131	0x3d867102	0.06564523
132	0xbdd77a1a	-0.10521336
133	0x3dbc7ea0	0.09203839
134	0x3e1b9802	0.15194705
135	0x3d8a35c8	0.06748539
136	0x3e367ca4	0.17820984
137	0x3e38aa94	0.1803382
138	0xbd4e4067	-0.050354388
139	0x3d35f50e	0.044423155
140	0xbd7c622a	-0.061617054
141	0x3dbb72e5	0.09152774
142	0x3c861de9	0.016371684
143	0x3d9e3970	0.07725799
144	0xbde6276e	-0.11237989
145	0xbd3cd276	-0.04609915
146	0x3e1e9494	0.15486366
147	0x3d1075ee	0.035268717
148	0xbc4cc759	-0.0124987
149	0x3d8becc8	0.06832272
150	0x3e0df65b	0.13863508
151	0xbd88fdc8	-0.0668903
152	0x3e0b6c7e	0.13615605
153	0x3d52b749	0.051444326
154	0xbbba3a20	-0.0056831986
155	0x3dd81b9c	0.10552141
156	0xbd8029c5	-0.06257967
157	0x3c5adc1d	0.013358143
158	0x3da33c33	0.079704665
159	0x3d93dd0a	0.07219894
160	0xbd8f988e	-0.07011519
161	0xbd8ce83b	-0.06880232
162	0x3dae9c69	0.085259266
163	0x3ce8fa6b	0.028439721
164	0xbcfb672d	-0.030688846
165	0xbe0bc891	-0.13650729
166	0xbe0807df	-0.13284253
167	0x3dbdf277	0.09274762
168	0x3da14cd8	0.07875985
169	0x3e3ad107	0.182438
170	0x3d900134	0.070314795
171	0x3d1f439f	0.038882848
172	0xbc613847	-0.013746328
173	0xbd6a8e27	-0.057264473
174	0x3daaf271	0.08347023
175	0x3cdf322f	0.02724561
176	0xbd96eff0	-0.07369983
177	0xbddeeed0	-0.108853936
178	0xbab875d4	-0.0014073201
179	0xbda8d029	-0.082428284
180	0x3c756508	0.014977701
181	0xbe407ecb	-0.18798368
182	0xbe3b3d71	-0.18285157
183	0x3e44451e	0.19166991
184	0xbdf12663	-0.117749
185	0xbca7419a	-0.020417023
186	0x3ce127b0	0.027484745
187	0xbdf3b8b9	-0.119004674
188	0x3df65520	0.12027955
189	0xbd983ee8	-0.074338734
190	0x3d05a393	0.0326267
191	0x3cb3b6b3	0.021937704
192	0xbd953cee	-0.07287012
193	0xbe3a0f9c	-0.18170017
194	0x3d3f4501	0.046696667
195	0xbc850b11	-0.016240628
196	0xbd06b347	-0.032885816
197	0x3ca68e7d	0.020331616
198	0xbd385ce9	-0.04501048
199	0x3d9792d9	0.07401056
200	0x3d984de3	0.07436731
201	0xbdcfa4d6	-0.10138862
202	0xbcd165cd	-0.025561238
203	0xbe0cd632	-0.13753584
204	0xbd5cfea2	-0.053953774
205	0x3de14ae0	0.110006094
206	0x3d83d3d9	0.06436891
207	0x3dc7f49c	0.097634524
208	0xbc96c8e9	-0.018406348
209	0xbd1465bb	-0.03622983
210	0x3d380d53	0.044934582
211	0x3cfbe71a	0.030749846
212	0x3d911b9f	0.070853464
213	0x3db2f1ba	0.08737512
214	0xbde4fce9	-0.11181051
215	0xbd942498	-0.07233542
216	0xbdaf3b01	-0.08556176
217	0x3d69efa9	0.057113323
218	0x3d4fcc1f	0.050731774
219	0x3deefba2	0.11669089
220	0xbe0532fa	-0.13007727
221	0x3c9c1b35	0.019055942
222	0x3e27bc9f	0.16380547
223	0x3e11468c	0.14187068
224	0x3dc5dbe8	0.096610844
225	0xbd666473	-0.05624814
226	0xbdf62a24	-0.120197564
227	0xbd838a2e	-0.0642284
228	0xbdd862c0	-0.1056571
229	0x3d5f8891	0.0545736
230	0xbdad8cdd	-0.08474133
231	0xbd2f1532	-0.042744823
232	0xbd959e49	-0.07305581
233	0x3d85404f	0.065064065
234	0x3d8424bd	0.0645232
235	0x3ddc5144	0.10757688
236	0xbc2daed7	-0.010600767
237	0x3d43a5d5	0.04776557
238	0xbe007cb3	-0.12547569
239	0xbd9632cb	-0.07333907
240	0x3d90cf1a	0.070707515
241	0xbd47f697	-0.04881915
242	0xbd0432b5	-0.03227492
243	0xbc2dbf76	-0.01060473
244	0x3e282f29	0.1642424
245	0x3e2ee08c	0.17077845
246	0x3dfda9c0	0.12385893
247	0x3e2244d3	0.15846567
248	0x3b29fcb5	0.0025937979
249	0xbd69f793	-0.05712087
250	0x3c56592b	0.013082783
251	0x3d3bc9ca	0.045846738
252	0x3da8e870	0.08247459
253	0x3c3c8d2f	0.01150827
254	0x3e134fc0	0.14385891
255	0x3c8cbcc2	0.01717985

lstm2.weight_ih_l0 f4 [160, 80]
0	0x3d0fd5f1	0.03511614
1	0xbe26c45a	-0.1628584
2	0x3dd0f933	0.10203781
3	0x3e5cbabc	0.21555609
4	0xbd6a1e7f	-0.05715799
5	0x3d5e84b6	0.05432578
6	0x3ddd8ea6	0.10818224
7	0x3e28aeca	0.16472927
8	0x3dd44676	0.10365002
9	0x3e1fd6d0	0.15609288
10	0xbd68efa0	-0.05686915
11	0xbe1312a3	-0.14362578
12	0x3da38758	0.07984799
13	0x3d5290b0	0.051407516
14	0x3e870e84	0.26378262
15	0x3dc68efd	0.096952416
16	0x391aca13	0.00014761863
17	0x3df30ea4	0.11868027
18	0x3e1d999e	0.15390632
19	0x3e15e084	0.14636427
20	0x3e589a08	0.21152508
21	0xbe00c231	-0.12574078
22	0xbdd60001	-0.104492195
23	0x3d1daa2c	0.038492367
24	0xbe15a305	-0.14612968
25	0xbdc8c693	-0.098035
26	0x3d80dfa8	0.06292659
27	0xbdbfacdf	-0.093591444
28	0xbe19b049	-0.15008654
29	0xbe12b6e5	-0.14327581
30	0x3d0f8e56	0.03504785
31	0x3e0421d0	0.12903523
32	0x3dcb246d	0.09919057
33	0xbe3fa803	-0.18716435
34	0xbd1243c5	-0.03570916
35	0xbd91cb15	-0.07118813
36	0x3dd8f803	0.105941795
37	0xbdbebf1d	-0.09313796
38	0xbd4fd78a	-0.050742663
39	0xbce55893	-0.027996337
40	0x3c485f58	0.012229763
41	0xbe1eeb95	-0.15519555
42	0xbe75cecd	-0.2400467
43	0xbe2d8bdf	-0.16947888
44	0xba5be0c6	-0.0008387681
45	0x3dd6b358	0.10483426
46	0x3ce54fe1	0.02799219
47	0x3d8796f8	0.06620592
48	0x3e3e299b	0.18570559
49	0xbbdd0191	-0.0067445715
50	0xbdb38a57	-0.087666206
51	0x3df4f739	0.119612165
52	0x3d805a74	0.062672526
53	0xbd97fbeb	-0.074210964
54	0x3dda2f75	0.10653583
55	0x3cc2f19d	0.02379685
56	0x3ddfb10d	0.10922442
57	0x3e2da7d7	0.16958557
58	0x3d7b123f	0.061296698
59	0x3e52283d	0.20523162
60	0xbcc8ae01	-0.024497034
61	0xbe8ae36b	-0.2712663
62	0x3e2f1175	0.17096503
63	0xbe15706f	-0.14593671
64	0x3e36308f	0.17791961
65	0xbd542207	-0.051790264
66	0xbe42f245	-0.19037731
67	0x3dc2011f	0.0947287
68	0x3df9ed43	0.12203457
69	0xbdec4b04	-0.115377456
70	0x3baaf76d	0.0052174837
71	0xbe6dfe19	-0.23241462
72	0xbe82925b	-0.25502285
73	0xbe4cb948	-0.19992554
74	0x3d7f45d3	0.06232245
75	0x3e1b551d	0.15169187
76	0x3cfbbe22	0.03073031
77	0x3b9dc78b	0.004815047
78	0x3ca87366	0.020562839
79	0x3e097b2a	0.1342589
80	0xbd15e719	-0.036597345
81	0x3dea98ca	0.114549235
82	0x3e2c2293	0.16810064
83	0x3d1d7d70	0.038449705
84	0xbd92f0e2	-0.07174851
85	0x3bc2301b	0.005926145
86	0x3d83f60a	0.064434126
87	0x3e0e3dcc	0.13890761
88	0xbd91ecef	-0.071252696
89	0xbc64d031	-0.013965652
90	0x3e282eae	0.16424057
91	0xbd8a6dad	-0.067592
92	0x3d18be39	0.037290785
93	0xbccb5c21	-0.024824204
94	0xbd983e08	-0.074337065
95	0xba4b6b95	-0.00077598664
96	0xbd0262f0	-0.031832635
97	0xbe275218	-0.1633991
98	0x3db1414c	0.086550325
99	0xbe360f64	-0.17779309
100	0x3dd689ba	0.10475488
101	0xbdadc64a	-0.08485086
102	0xbe91e295	-0.2849318
103	0xbe55aed8	-0.20867479
104	0xbd5364a2	-0.051609643
105	0xbe565983	-0.20932584
106	0x3dde52db	0.10855647
107	0x3e59456a	0.21217886
108	0xbe2c6f42	-0.16839316
109	0x3de0013a	0.10937734
110	0x3e102dcb	0.14079969
111	0xbdbe1067	-0.09280472
112	0xbdfb9444	-0.12284139
113	0xbe40e56d	-0.18837519
114	0x3e253b51	0.16135909
115	0xbdac5ae3	-0.08415773
116	0x3e517093	0.204531
117	0x3d040fcd	0.03224163
118	0x3dc55ef1	0.09637249
119	0x3d872155	0.065981545
120	0xbced04b9	-0.028932916
121	0x3e5323b6	0.20619091
122	0x3e2e4a0e	0.17020437
123	0xbe5527cd	-0.20815964
124	0x3daff8e0	0.08592391
125	0x3e734a51	0.23758818
126	0xbdef0665	-0.116711415
127	0x3c08fa5d	0.0083604725
128	0xbca9ec23	-0.020742482
129	0x3e59980a	0.21249405
130	0xbcc9b249	-0.024621146
131	0x3c1c72d9	0.009548866
132	0x3d2b590a	0.04183296
133	0xbcd62daf	-0.02614483
134	0xbe0523b1	-0.13001896
135	0xbe8dd311	-0.27700093
136	0xbd8fab45	-0.07015089
137	0xbd934af7	-0.07192033
138	0x3daf027a	0.08545394
139	0x3d81d350	0.06339133
140	0x3d8455fc	0.06461713
141	0x3e006683	0.12539105
142	0x3d44c3c4	0.04803826
143	0xbd8316cc	-0.064008325
144	0x3da6a119	0.08136196
145	0xbcd57db4	-0.026060916
146	0xbd1269fc	-0.035745606
147	0x3db61f10	0.088926435
148	0xbdb5ea1d	-0.08882544
149	0x3ce8fb04	0.028440006
150	0x3e928f0e	0.28624767
151	0x3d09b3b7	0.033618655
152	0xbe2c28ff	-0.16812514
153	0xbd1f0557	-0.03882345
154	0x3e045cb7	0.12925993
155	0xbd7116c3	-0.058859598
156	0x3e0cb476	0.13740715
157	0x3e14fdbd	0.14549918
158	0xbc5373b5	-0.012906005
159	0x3b8619b6	0.0040924205
160	0xbe8d4a90	-0.2759595
161	0xbd903845	-0.070419826
162	0x3cff5887	0.031170143
163	0xbe40ca43	-0.18827157
164	0x3d95162c	0.072796196
165	0xbdbfe252	-0.09369339
166	0xbc3c3365	-0.011486863
167	0xbc8d0184	-0.017212637
168	0xbe339fab	-0.17541377
169	0x3e481160	0.19537878
170	0x3c134d46	0.008990591
171	0x3996d690	0.0002877009
172	0x3e7ad689	0.24495901
173	0xbe2eb2f7	-0.17060457
174	0x3e6fc381	0.23414423
175	0x3da082c7	0.07837444
176	0x3e28bf8b	0.16479318
177	0x3e05204e	0.13000605
178	0x3d03b6c6	0.03215673
179	0x3d84d92c	0.06486735
180	0xbe0883d3	-0.13331537
181	0xbe8a8b96	-0.2705962
182	0x3e12f9f6	0.14353165
183	0x3da24541	0.079233654
184	0xbb1ba1d5	-0.0023747582
185	0xbd5cf961	-0.053948764
186	0x3c5d6274	0.013512243
187	0xbcc018ec	-0.023449384
188	0xbca8508f	-0.020546226
189	0xbdeed1d5	-0.11661116
190	0x3d6cbdde	0.05779826
191	0x3dc20943	0.09474423
192	0xbda69796	-0.081343815
193	0xbd915997	-0.07097166
194	0x3e00e591	0.12587573
195	0xbd013b7c	-0.03155087
196	0xbe1ae300	-0.15125656
197	0xbd58e376	-0.0529513
198	0x3da28c40	0.07936907
199	0x3a3dbb94	0.0007237729
200	0x3e2d114c	0.1690113
201	0x3e10fc53	0.14158754
202	0xbd0ff792	-0.03514821
203	0x3dec01b3	0.115237616
204	0xbd9cb689	-0.07652003
205	0x3b414db0	0.0029495768
206	0xbe0a2184	-0.13489348
207	0xbe512964	-0.20425946
208	0x3db2f87d	0.08738802
209	0x3d3fe52c	0.046849415
210	0x3e22b640	0.15889835
211	0x3e29b24a	0.16571918
212	0x3e6f2ec1	0.23357679
213	0x3d0855fd	0.03328513
214	0xbe05adc5	-0.13054569
215	0x3e083e67	0.13305055
216	0xbda5f5d1	-0.081035264
217	0x3d6fa0ff	0.058503147
218	0x3e543045	0.20721538
219	0x3dc9e0e2	0.09857346
220	0xbc8d7952	-0.017269764
221	0xbdce6ebd	-0.100797154
222	0x3e7d8438	0.24757469
223	0xbd00eef6	-0.03147789
224	0x3cf46411	0.029832872
225	0x3cef5cdc	0.029219083
226	0xbde3ce9e	-0.111233935
227	0xbe3cd341	-0.18439962
228	0x3c4aaa3d	0.0123696895
229	0x3b6a4862	0.003574871
230	0xbe2f404b	-0.1711437
231	0xbdf9317f	-0.12167644
232	0xbd76c54a	-0.060246743
233	0xbd2d199a	-0.042260744
234	0x3e194e59	0.14971294
235	0x3e2d9e57	0.16954933
236	0xbc098ac0	-0.008394897
237	0x3d537b9a	0.051631548
238	0x3dcbd665	0.09953002
239	0xbd86b3aa	-0.06577237
240	0xbda0ea52	-0.07857193
241	0x3e1904eb	0.14943282
242	0x3ce8d755	0.02842299
243	0x3e2eff05	0.1708947
244	0x3d964b3f	0.07338571
245	0xbe270706	-0.16311273
246	0xbe44d029	-0.19220032
247	0x3e6cf132	0.23138884
248	0x3dc3350a	0.09531601
249	0xbdb9e8f4	-0.090776354
250	0x3e13d083	0.1443501
251	0x3d6c0714	0.057623938
252	0xbe44858f	-0.19191574
253	0x3dbe0121	0.09277559
254	0xbd359db7	-0.04433986
255	0xbda14262	-0.0787399

lstm2.weight_hh_l0 f4 [160, 40]
0	0x3cebb11e	0.02877098
1	0xbe819832	-0.25311428
2	0x3ca4e6a4	0.02012951
3	0x3df7d452	0.12101044
4	0xbd342c16	-0.043987356
5	0xbe477748	-0.19479096
6	0xbdd7cfd9	-0.10537691
7	0xbe045d81	-0.12926294
8	0xbe395689	-0.18099417
9	0x3e2ce055	0.16882451
10	0xbe037b0f	-0.12839912
11	0x3e1ca2ae	0.15296432
12	0xbc9e6fb2	-0.01934037
13	0x3e0faa30	0.14029765
14	0x3e102536	0.14076695
15	0x3cd58964	0.02606649
16	0xbe242f3d	-0.16033645
17	0xbc354167	-0.011062956
18	0x3ceecfae	0.029151764
19	0xbd428a05	-0.047494907
20	0x3e97fe14	0.29686034
21	0x3e038277	0.12842737
22	0x3d27c779	0.040961716
23	0xbdb5f62e	-0.08884846
24	0xbd2a4f2b	-0.041579407
25	0x3dd22c9f	0.10262417
26	0x3e1529ed	0.14566775
27	0xbe7dc9ea	-0.24784055
28	0x3dc26a03	0.094928764
29	0x3d400b3c	0.046885714
30	0xbe49dfd8	-0.19714296
31	0x3c518b04	0.012789492
32	0x3e4c292f	0.19937585
33	0xbcac011c	-0.020996623
34	0xbe18ec43	-0.14933877
35	0xbcb415c0	-0.021983027
36	0xbdb0a6d1	-0.08625568
37	0xbd7d3a42	-0.061823137
38	0xbc81af59	-0.015830683
39	0xbe5dd076	-0.21661553
40	0xbda00b6e	-0.0781468
41	0x3c835096	0.016029637
42	0xbd8ed540	-0.06974268
43	0x3e2c4dbf	0.16826533
44	0x3d2aacd9	0.041668747
45	0xbe73ee29	-0.2382132
46	0xbd20f7c1	-0.039298777
47	0xbd8b8503	-0.06812479
48	0xbe5fe173	-0.21863346
49	0x3d701a1a	0.058618642
50	0x3d6b08da	0.05738149
51	0x3dc9e606	0.098583266
52	0xbd265f0b	-0.040617984
53	0x3deab679	0.11460585
54	0x3e7b7463	0.24556117
55	0x3e0ba75f	0.13638066
56	0xbdae682e	-0.085159644
57	0xbd112eae	-0.035444908
58	0xbd9a0669	-0.07520754
59	0xbdedbe30	-0.11608541
60	0xbd03b85b	-0.032158237
61	0xbbc54f82	-0.006021441
62	0x3e35c74b	0.17751805
63	0xbd19ed67	-0.03757992
64	0x3e30b180	0.17255211
65	0x3d259b46	0.040431283
66	0x3d88d701	0.06681634
67	0xbbfbcbe0	-0.007684216
68	0x3eb0a109	0.3449786
69	0x3e0ca250	0.13733792
70	0xbe480108	-0.19531643
71	0xbd409e58	-0.04702601
72	0xbdb8cb01	-0.09023095
73	0xbe1b1fc1	-0.15148832
74	0xbd1b4180	-0.037904263
75	0x3d574c8d	0.05256324
76	0x3dfb10f3	0.12259092
77	0x3c4ca3da	0.012490237
78	0xbd4ec15f	-0.05047738
79	0x3dcc99b1	0.09990252
80	0xbe23fce9	-0.16014446
81	0xbdd83c7e	-0.10558413
82	0x3dff4d01	0.12465859
83	0xbe311e9c	-0.17296833
84	0xbdb10a9f	-0.08644604
85	0xbe5c8c69	-0.21537937
86	0xbde18528	-0.11011726
87	0x3dd5192d	0.104051925
88	0xbcd7977b	-0.026317349
89	0x3dc3c4cf	0.09559023
90	0xbddd8566	-0.10816459
91	0x3d3b9289	0.045794044
92	0x3dcb467e	0.09925555
93	0xbdf15c75	-0.11785213
94	0x3d997dc5	0.07494692
95	0xbdacca17	-0.08436983
96	0x3d1179f1	0.035516683
97	0x3c981dda	0.018568922
98	0x3da83706	0.0821362
99	0xbe7d6ddd	-0.24748941
100	0x3d8bc72d	0.06825099
101	0xbc702498	-0.014657162
102	0x3c929b65	0.017896364
103	0xbc524c8b	-0.012835632
104	0x3dd8cd01	0.105859764
105	0x3b9af551	0.004728951
106	0xbdb80092	-0.08984484
107	0x3da8b554	0.082377106
108	0x3e4ca457	0.19984566
109	0x3e0806d3	0.13283853
110	0xbdb4e5d2	-0.08832897
111	0x3d977ca9	0.07396824
112	0xbe5d0864	-0.21585232
113	0xbcbb3f84	-0.022857435
114	0x3d0e4039	0.034729216
115	0xbb5bc739	-0.0033535494
116	0xbe39f21c	-0.18158764
117	0x3a6d4137	0.000905055
118	0xbd3f9181	-0.046769623
119	0xbd56c56f	-0.05243438
120	0x3e20fe51	0.15722014
121	0xbdad9708	-0.084760725
122	0x3dbd3086	0.09237771
123	0xbd12ac21	-0.035808686
124	0x3e1bfe1b	0.15233652
125	0xbbbdea91	-0.0057957848
126	0xbe146ff1	-0.14495827
127	0xbba8fcfa	-0.0051571103
128	0xbe20748f	-0.15669464
129	0x3e15cf96	0.14629969
130	0xbe067e1c	-0.13134044
131	0xbe6330a5	-0.22186525
132	0xbcc3a5d9	-0.023882793
133	0x3c81d4f4	0.015848614
134	0x3dd0bb2f	0.101919524
135	0x3d86e612	0.06586851
136	0x3c05a748	0.008157559
137	0x3ba796ae	0.005114398
138	0xbd0f2abf	-0.034952875
139	0x3db5201c	0.08844015
140	0xbdde4021	-0.10852075
141	0x3d10b082	0.03532458
142	0xbd8eb2e0	-0.069677114
143	0xbc96657a	-0.018358935
144	0xbd62bd6f	-0.05535644
145	0x3d9f4bdc	0.07778141
146	0xbdb97a0f	-0.09056484
147	0xbe64b14a	-0.22333255
148	0x3e4aaa97	0.19791637
149	0xbd94403b	-0.072388135
150	0xbe28029a	-0.16407242
151	0x3d6f84ea	0.058476366
152	0x3e0fac5e	0.14030597
153	0xbb28c4e1	-0.0025752115
154	0xbe732b63	-0.2374702
155	0x3e22ea52	0.15909699
156	0xbe3aba88	-0.18235219
157	0xbd8e08e3	-0.06935289
158	0xbe175e0f	-0.14781974
159	0x3dfc3122	0.12314059
160	0x3d521261	0.05128706
161	0xbdfe6907	-0.12422376
162	0x3e1a550c	0.15071505
163	0x3dc877e2	0.09788491
164	0x3dbd5fec	0.09246811
165	0xbdb8f5c6	-0.090312526
166	0xbd54d91f	-0.051964875
167	0xbd05aca1	-0.032635335
168	0x3db1d9e8	0.086841404
169	0x3dd59cfd	0.10430334
170	0x3df1a57a	0.1179914
171	0xbe4616d1	-0.19344641
172	0x3e4637bc	0.19357198
173	0xbe22c4dd	-0.1589541
174	0xbd82477e	-0.06361292
175	0x3d9b7f6c	0.07592663
176	0xbe44074f	-0.19143413
177	0x3e6cd617	0.23128544
178	0xbd4cef8e	-0.050033145
179	0xbc809dbc	-0.015700214
180	0xbda124ec	-0.078683704
181	0xbc2f63bf	-0.010704934
182	0xbd325208	-0.043535262
183	0x3de402ff	0.11133384
184	0x3c4c54ef	0.012471422
185	0xbc5a35ef	-0.013318523
186	0x3e2e3d79	0.17015637
187	0x3d052bde	0.032512538
188	0x3e68e93d	0.22745223
189	0x3de763a5	0.112983026
190	0xbcd37ed6	-0.025817316
191	0xbda4daf2	-0.08049573
192	0x3df973c1	0.121802814
193	0xbd637d90	-0.055539668
194	0xbbfcbfbb	-0.0077132857
195	0x3d696576	0.056981526
196	0x3ca473b7	0.020074708
197	0xbe193778	-0.14962566
198	0xbe1e96ed	-0.15487261
199	0x3df88f4e	0.12136708
200	0xbd8acdcd	-0.06777535
201	0x3c8e46ef	0.017367808
202	0xbdd258c8	-0.1027084
203	0x3dd57df6	0.10424416
204	0x3c1f15db	0.009709801
205	0x3deb8035	0.11499063
206	0xbe201d62	-0.15636209
207	0x3dad6da1	0.08468176
208	0x3e0f4162	0.13989785
209	0x3eb4fa95	0.3534743
210	0xbc5c2fe0	-0.013439149
211	0x3d313e22	0.043272145
212	0x3cb66e1c	0.022269301
213	0xbddd3f0b	-0.1080304
214	0x3e3a0f8b	0.18169992
215	0x3e2a54ad	0.16633864
216	0xbdb70ba2	-0.08937766
217	0x3e19c13c	0.1501512
218	0x3dd0c8c2	0.101945415
219	0xbdee9738	-0.116499364
220	0x3d3959b0	0.04525155
221	0xbc5d4e4e	-0.013507439
222	0xbea60307	-0.32424185
223	0x3d1f1f29	0.038848076
224	0x3da4b507	0.08042341
225	0x3cdfbba4	0.027311154
226	0xbd2c4c8d	-0.042065192
227	0xbd15bac5	-0.03655507
228	0x3deed610	0.11661923
229	0x3bdab3de	0.006674274
230	0xbd29930e	-0.041400008
231	0xbe3c50d0	-0.18390203
232	0xbcedf521	-0.02904755
233	0xbd922527	-0.071359925
234	0xbdad270e	-0.08454715
235	0x3d8d9580	0.069132805
236	0x3e32e41d	0.17469831
237	0xbe501c76	-0.20323357
238	0xbddd6701	-0.10810662
239	0x3d424d53	0.047437023
240	0x3dadfae7	0.084951214
241	0x3deff02f	0.11715733
242	0x3d5db3ea	0.054126658
243	0x3d20379c	0.039115533
244	0xbe1917b7	-0.14950453
245	0x3ce0b185	0.027428398
246	0x3d7fb563	0.062428843
247	0x3e28f3fd	0.16499324
248	0xbe3ce6ea	-0.18447462
249	0x3e776bce	0.24162218
250	0xbcf901da	-0.03039639
251	0x3e18e595	0.14931329
252	0x3e977dab	0.29588065
253	0xbd9ef928	-0.077623665
254	0x3c34a15b	0.011024798
255	0xbe147756	-0.14498648

lstm2.bias_ih_l0 f4 [160]
0	0x3e6961b1	0.22791173
1	0x3d9e92e0	0.07742858
2	0x3cfd7be0	0.030942857
3	0x3e486a5c	0.19571823
4	0x3e9047cf	0.28179786
5	0x3debe8d5	0.115190186
6	0xbd73d033	-0.059524726
7	0x3e125d72	0.14293459
8	0xbc088112	-0.008331554
9	0x3e3ef423	0.18647818
10	0x3d87a5e1	0.06623436
11	0x3d4b517f	0.049638268
12	0x3cec7576	0.028864603
13	0x3da14925	0.07875279
14	0x3dc1ddfe	0.0946617
15	0x3d7bc16b	0.061463755
16	0x3e71e07d	0.23620792
17	0x3e67bc6a	0.22630468
18	0x3e2424b6	0.16029629
19	0x3c6af837	0.014341406
20	0x3df3229e	0.11871837
21	0x3d8add9c	0.0678055
22	0x3e3feeea	0.18743482
23	0x3da85067	0.082184605
24	0x3c1492cc	0.009068202
25	0x3e0cbad3	0.13743143
26	0x3e31d1b4	0.17365152
27	0x3deb0efd	0.11477468
28	0x3e3ed9d2	0.1863778
29	0xbd89bd80	-0.067255974
30	0x3db6025a	0.08887167
31	0xbd0168e4	-0.031594172
32	0x3e49e337	0.19715582
33	0xbdcb7be4	-0.0993574
34	0x3da19d5b	0.07891341
35	0xbe14cec2	-0.14531997
36	0x3e4b6f4a	0.19866672
37	0x3e544029	0.207276
38	0x3dc25618	0.09489077
39	0x3ca24c39	0.019811736
40	0x3d6de444	0.05807902
41	0x3eb5a085	0.3547403
42	0x3df8298f	0.12117302
43	0x3b1b7b03	0.0023724444
44	0x3e901d0b	0.28147158
45	0x3dd03f65	0.101683415
46	0x3d7f2db0	0.06229943
47	0xbc6c8643	-0.014436307
48	0x3e284114	0.16431075
49	0x3dc3ad82	0.09554578
50	0x3e7d1c6e	0.24717876
51	0x3e22d3ac	0.15901059
52	0x3e590d1c	0.21196407
53	0x3dd820c5	0.10553125
54	0x3e3281ee	0.17432377
55	0x3e690455	0.22755559
56	0x3dda3d62	0.10656239
57	0x3e844bdc	0.25839126
58	0x3e5fbb07	0.21848689
59	0x3e567b2c	0.20945424
60	0x3d199575	0.03749605
61	0x3e428ff4	0.19000226
62	0x3bb8cdf3	0.0056397854
63	0x3e85ab4e	0.26107258
64	0x3e4a7064	0.19769436
65	0x3e48c32a	0.19605699
66	0xbbc9d46f	-0.0061593573
67	0x3df03f22	0.11730792
68	0x3e24b9fc	0.16086572
69	0x3e9d827f	0.30763623
70	0x3daba3a4	0.08380821
71	0x3e8e08b8	0.27741027
72	0x3ea1c9ce	0.31599277
73	0x3ceb64f6	0.028734665
74	0xbd49d088	-0.049271137
75	0x3e4da724	0.2008329
76	0x3e031fad	0.12805052
77	0x3dc45c6d	0.09587941
78	0x3e8426f4	0.2581097
79	0x3d0d037e	0.03442716
80	0xbdd30b60	-0.10304904
81	0xbe05c3b0	-0.1306293
82	0xbe1c3de4	-0.15257984
83	0xbdab30ca	-0.08358915
84	0x3d2f40a2	0.042786248
85	0xbe3390e6	-0.17535743
86	0xbda09e4b	-0.07842692
87	0x3d57ce33	0.05268688
88	0xbe0d549e	-0.1380181
89	0x3d74f4f6	0.059803925
90	0xbdee39f6	-0.11632149
91	0x3dc0247f	0.09381961
92	0x3e03f630	0.12886882
93	0xbdafa375	-0.08576099
94	0x3dd1f1f2	0.102512255
95	0x3d8727b8	0.065993726
96	0xbe542359	-0.20716609
97	0x3cf1c55b	0.029513052
98	0xbc8b69a7	-0.017018152
99	0xbe206f2c	-0.15667409
100	0xbd38feb1	-0.045164768
101	0x3cc225ad	0.023699606
102	0xbd87be74	-0.06628123
103	0xbc40b3e6	-0.011761641
104	0xbd824161	-0.06360126
105	0x3d8c3119	0.06845302
106	0x3c26cf44	0.010181252
107	0xbce01f60	-0.02735871
108	0xb9845543	-0.00025240527
109	0x3db48df7	0.0881614
110	0x3bd808eb	0.00659286
111	0xbd97bba2	-0.07408835
112	0xbda18fec	-0.07888779
113	0xbe16c250	-0.14722562
114	0xbce3a0ef	-0.0277867
115	0x3d7a36c6	0.061087392
116	0xbd7843f8	-0.060611695
117	0xbde7ec54	-0.11324373
118	0xbe113ac8	-0.1418258
119	0xbb1a1a2e	-0.002351414
120	0x3d67238e	0.056430392
121	0x3e24e9fb	0.16104881
122	0x3e969a53	0.29414615
123	0x3e8d2790	0.27569246
124	0x3e05a464	0.13050991
125	0x3c869c1f	0.016431866
126	0x3e5b2185	0.21399505
127	0x3d5dc0c0	0.0541389
128	0x3d6ce038	0.05783102
129	0x3e0be14b	0.13660161
130	0x3daae2b7	0.08344024
131	0x3e9ae5c8	0.30253434
132	0x3e22bafa	0.15891638
133	0x3e938f7e	0.28820413
134	0x3e8aa5d1	0.27079633
135	0x3e8498c1	0.25897792
136	0x3de60de4	0.11233118
137	0x3dca39cd	0.09874306
138	0x3e82c48a	0.25540572
139	0x3e16b5d3	0.14717798
140	0x3ea96ee7	0.33092424
141	0x3eada249	0.33912876
142	0x3e693d4c	0.22777289
143	0x3e7d6323	0.24744849
144	0x3e1f1df2	0.15538767
145	0xbc0ac3f0	-0.008469567
146	0x3e77d221	0.24201252
147	0x3e8b5c9b	0.2721909
148	0x3eb3b72d	0.3510069
149	0x3d8d2996	0.068926975
150	0x3df95636	0.121746466
151	0x3e84ac9c	0.2591294
152	0x3e3f3a1b	0.18674509
153	0x3e88bcfc	0.26706684
154	0x3d923e71	0.07140816
155	0x3ba40c68	0.0050063618
156	0x3dfa8a27	0.12233382
157	0x3e147dba	0.14501086
158	0x3e3742bf	0.17896555
159	0x3e9fe8cb	0.31232294

lstm2.bias_hh_l0 f4 [160]
0	0x3d526158	0.051362365
1	0x3e6d474f	0.23171733
2	0x3e04d703	0.12972645
3	0x3e0ad090	0.13556123
4	0x3e002c45	0.12516887
5	0xbd8ce3e4	-0.06879404
6	0xbd6a1fc6	-0.057159208
7	0x3d88004e	0.06640683
8	0x3d9ad294	0.07559696
9	0x3d56e666	0.05246582
10	0x3e523b0e	0.2053034
11	0x3e403866	0.18771514
12	0x3d798162	0.060914405
13	0x3e5394d3	0.2066224
14	0x3df12054	0.11773744
15	0x3d9c0200	0.07617569
16	0x3dbaa253	0.09112992
17	0x3e43082d	0.19046088
18	0x3d8dd2a5	0.06924943
19	0x3e52061f	0.20510148
20	0xbdbad259	-0.09122152
21	0xbb3cc325	-0.0028802839
22	0x3e56c90f	0.20975135
23	0x3dc1f403	0.0947037
24	0x3e078e53	0.13237886
25	0x3c0eec94	0.008723397
26	0xbd998fa3	-0.074981
27	0x3e08c7cc	0.13357466
28	0x3e4dc08e	0.20092985
29	0x3e315d93	0.17320852
30	0x3e2200a1	0.15820552
31	0x3d56a9a0	0.05240786
32	0xbdb37465	-0.08762435
33	0x3e2a1aa3	0.16611724
34	0x3e15e5fb	0.14638512
35	0x3e0b9941	0.1363268
36	0x3be8e4dc	0.0071073603
37	0x3e59e001	0.21276857
38	0xbc49d6ea	-0.012319306
39	0xbc96d6b8	-0.018412933
40	0x3bbf932f	0.005846403
41	0x3db4e4bc	0.0883269
42	0x3ddf8132	0.10913314
43	0xbd17e8eb	-0.037087362
44	0x3ddc8f85	0.10769562
45	0x3e2c6ada	0.16837636
46	0x3dd2f586	0.10300736
47	0x3e3b16be	0.18270394
48	0x3e325cbc	0.17418188
49	0x3e2d684a	0.16934314
50	0x3bb43dd8	0.0055005364
51	0x3e859d99	0.260968
52	0x3ddbb226	0.107273385
53	0xbce5f453	-0.028070604
54	0x3e10c380	0.14137077
55	0x3e3d25f0	0.18471503
56	0x3d638c65	0.055553813
57	0x3dd7f565	0.10544852
58	0x3e2fb269	0.17157902
59	0x3d912be1	0.07088447
60	0x3e83f74c	0.2577461
61	0x3e9fc856	0.31207532
62	0x3e83cd9f	0.25742814
63	0x3e6dcc2d	0.23222418
64	0xbcd0509f	-0.025429068
65	0x3d222b34	0.039591983
66	0x3e615f82	0.2200909
67	0x3df8444f	0.12122404
68	0x3db31f4a	0.08746202
69	0x3d666766	0.056250952
70	0xbaf4e535	-0.0018684032
71	0x3de779ae	0.113025054
72	0x3e4d5a35	0.20053943
73	0x3ddc0298	0.10742682
74	0x3d3cbb9b	0.046077352
75	0x3d92dc7d	0.07170961
76	0x3eb049fd	0.3443145
77	0x3d3ead17	0.04655179
78	0x3e882f3e	0.26598543
79	0x3dd6a85b	0.1048133
80	0xbd6e7b40	-0.05822301
81	0x3da37cec	0.07982811
82	0x3db4d147	0.08828979
83	0x3dfc8772	0.12330522
84	0x3d33736f	0.043811258
85	0x3c1dc317	0.009629033
86	0xbc6a0506	-0.014283424
87	0x3d5912a6	0.0529963
88	0xbda42a4d	-0.08015881
89	0x3dcde364	0.10053137
90	0xbbd3b6ee	-0.006461016
91	0xb9e126a3	-0.0004294413
92	0x3deeacc1	0.11654044
93	0x3d636b9a	0.05552254
94	0x3e363fef	0.17797826
95	0x3dd3319f	0.10312199
96	0xbe451bca	-0.19248882
97	0x3dbc2e19	0.0918848
98	0x3d2fd345	0.04292609
99	0xbe30679c	-0.17227024
100	0x3dffb712	0.1248609
101	0x3d9a19bb	0.07524439
102	0x3dbfbe4b	0.093624674
103	0x3e222f88	0.15838444
104	0xbd804687	-0.06263452
105	0x3e2b18ba	0.16708651
106	0xbc3e4eb6	-0.011615446
107	0x3ceb4eb4	0.028724052
108	0x3e1a043f	0.15040682
109	0x3bc8345d	0.006109758
110	0xbdbdbd7f	-0.09264659
111	0x3a2c5697	0.0006574182
112	0x3e208d1b	0.15678827
113	0xbe0d76e8	-0.1381489
114	0x3d8dc294	0.069218785
115	0x3d78165e	0.060568206
116	0xbe0827d4	-0.13296443
117	0x3ca9632b	0.02067717
118	0xbde63d8b	-0.11242207
119	0x3d0a167e	0.033712856
120	0x3e2d19cb	0.1690437
121	0x3dc15499	0.09439964
122	0x3e7248ad	0.23660536
123	0x3e9ded56	0.30845135
124	0x3e61bd98	0.2204498
125	0x3db4498a	0.08803089
126	0x3e1d25a2	0.15346387
127	0x3dc56a94	0.09639469
128	0x3e251fc3	0.16125397
129	0x3e8e41c3	0.27784547
130	0x3e06b0de	0.13153407
131	0x3e92ef86	0.28698367
132	0x3df7a969	0.12092859
133	0x3e19ca21	0.15018512
134	0xbbf38b0f	-0.0074323486
135	0x3cb6535f	0.022256551
136	0x3e346aa7	0.1761881
137	0x3e5aecbb	0.21379368
138	0x3d3afa9f	0.045649167
139	0x3e60310b	0.21893708
140	0x3dd1abd0	0.10237849
141	0x3e332b53	0.17496996
142	0x3e66691e	0.22501037
143	0x3e60a809	0.219391
144	0x3d6e2a18	0.058145612
145	0x3d31c765	0.043403048
146	0x3d2018f9	0.039086316
147	0x3e394a7d	0.18094821
148	0x3e2c4de9	0.16826595
149	0x3ddcf78a	0.10789402
150	0x3e888ae3	0.26668462
151	0x3da93c05	0.08263401
152	0x3ea2de3f	0.31810185
153	0x3ea0a961	0.31379226
154	0x3d593dd9	0.0530375
155	0xbbbebe5b	-0.005821032
156	0x3daeaa40	0.08528566
157	0x3eb80819	0.35943678
158	0x3e7b42f9	0.24537267
159	0x3db0a976	0.08626072
