local/backend/rep_detector_model.pth (torch, 635012 bytes, 17 tensors)

lstm.weight_ih_l0 f4 [256, 48]
0	0xbeeef386	-0.4667017
1	0x3d9d0336	0.07666628
2	0xbe590f97	-0.21197353
3	0xbd90ac8c	-0.07064161
4	0x3dc17d92	0.09447779
5	0x3e9acbc6	0.30233592
6	0xbe26e790	-0.16299272
7	0xbdc3385b	-0.09532233
8	0xbdd0443e	-0.10169266
9	0xbc039c7e	-0.008032916
10	0xbe441715	-0.1914943
11	0x3d0f0fd0	0.03492719
12	0x3e583a87	0.21116076
13	0xbe2d9369	-0.16950764
14	0xbbd1cbe4	-0.0064024795
15	0x3dde8572	0.108652964
16	0x3e78a54a	0.24281803
17	0xbdaa1551	-0.08304847
18	0x3e91afd7	0.28454468
19	0x3d819766	0.06327705
20	0x3cd3c450	0.025850445
21	0x3e34d7ac	0.17660397
22	0x3de5d44c	0.11222133
23	0x3d16e5a9	0.036840115
24	0x3d77b295	0.060473043
25	0x3bf9a2f8	0.0076183043
26	0xbd7c7f67	-0.061644938
27	0x3e522b5c	0.20524353
28	0xbe5a0c2c	-0.21293706
29	0x3e47fe70	0.19530654
30	0x3eaafc37	0.3339555
31	0x3daf3990	0.08555901
32	0x3c593235	0.013256599
33	0x3d553109	0.052048717
34	0x3dfb24d8	0.12262887
35	0xbdd28a6c	-0.10280308
36	0xbc3dcf98	-0.011585139
37	0xbdcf3ab7	-0.10118621
38	0xbd792160	-0.060822845
39	0x3e6d1e8e	0.23156187
40	0xbd598cfa	-0.05311296
41	0xbe082c4d	-0.1329815
42	0x3e7d16e5	0.24715765
43	0x3d4827d0	0.048866093
44	0xbdc20c6c	-0.094750255
45	0x3ed3869c	0.41313636
46	0x3ea67375	0.32509962
47	0x3e39705e	0.18109271
48	0x3d82ddfd	0.06389997
49	0xbd7c59e1	-0.061609153
50	0x3da5447b	0.08069702
51	0xbea3036b	-0.31838545
52	0x3d81cccc	0.0633789
53	0xbdcd60e6	-0.100282475
54	0xbe2eb775	-0.17062171
55	0x3ecc0786	0.3984949
56	0x3e4ea128	0.20178664
57	0x3d8c461d	0.068493105
58	0xbe3a17e3	-0.18173175
59	0xbe2596dd	-0.16170831
60	0x3e468fbd	0.1939077
61	0x3e38f36c	0.18061608
62	0x3d91c0b0	0.0711683
63	0x3da43513	0.080179356
64	0x3de471b5	0.111545004
65	0x3e05e8af	0.13077043
66	0xbdeead73	-0.116541766
67	0xbdd74e7d	-0.10513017
68	0x3dfdd9eb	0.1239508
69	0x3ed8cc9e	0.4234361
70	0xbe43c12c	-0.19116658
71	0xbdda29d9	-0.10652513
72	0xbd026d46	-0.031842493
73	0x3e0a0305	0.13477714
74	0xbdd7c52a	-0.10535653
75	0xbea60113	-0.32422695
76	0x3e4d766d	0.20064707
77	0xbccbd0aa	-0.024879772
78	0x3e5774d8	0.21040666
79	0x3e4ef975	0.20212348
80	0xbd4b5adc	-0.049647197
81	0x3d8e79a5	0.069567956
82	0x3c62b8f0	0.013838038
83	0x3d9d156c	0.076701015
84	0xbd860e82	-0.06545736
85	0x3e219c1b	0.15782206
86	0x3dd9d86c	0.10636982
87	0x3db72225	0.089420594
88	0x3eba9ddb	0.3644856
89	0xbdf95a10	-0.12175381
90	0xbe5d8881	-0.21634103
91	0x3df54d86	0.11977677
92	0x3d7422e0	0.059603572
93	0x3df9c294	0.12195316
94	0xbe2a1ae4	-0.1661182
95	0x3bd580a8	0.006515581
96	0x3da551fa	0.080722764
97	0xbd5a1f9c	-0.0532528
98	0xbc36675c	-0.011133041
99	0xbc9827df	-0.0185737
100	0xbe33aec9	-0.17547144
101	0xbed7b050	-0.42126703
102	0xbc583d77	-0.013198248
103	0xbe494959	-0.19656886
104	0xbcc752f3	-0.024331545
105	0xbdb13f2e	-0.08654629
106	0x3d84f240	0.06491518
107	0xbde2b07e	-0.110688195
108	0x3d858b87	0.06520753
109	0xbe3e8b99	-0.1860794
110	0xbdafb4e8	-0.08579427
111	0xbeccf17c	-0.40027988
112	0x3e8ed809	0.27899197
113	0x3cdbf1cf	0.026848702
114	0x3e417cb7	0.18895231
115	0x3d55c484	0.052189365
116	0xbe1ba11a	-0.15198174
117	0x3d22a979	0.039712403
118	0x3d533f36	0.051573955
119	0x3cd8d7f3	0.02647016
120	0xbdc93086	-0.09823708
121	0x3cae20ce	0.021255877
122	0x3e06fc2b	0.13182132
123	0xbdf4ac00	-0.11946869
124	0xbe12713e	-0.14301011
125	0x3e3fa558	0.18715417
126	0xbeffcb77	-0.4995992
127	0xbe6e908a	-0.23297325
128	0xbe147524	-0.1449781
129	0xbe902119	-0.28150252
130	0xbde3c414	-0.11121383
131	0xbdc6d012	-0.09707655
132	0xbd6a33ce	-0.05717831
133	0xbce89fd6	-0.028396528
134	0xbd9dd15c	-0.07705948
135	0x3c993fe8	0.01870723
136	0xbdbcb8d5	-0.092149414
137	0x3cf3ea18	0.02977471
138	0xbeb5cc2d	-0.35507336
139	0xbc085740	-0.008321583
140	0x3bdf4d80	0.0068146586
141	0xbe0f0a87	-0.1396886
142	0x3d7b058f	0.061284598
143	0xbda9956f	-0.08280455
144	0xbe47c2ae	-0.19507858
145	0x3e9bf6ee	0.3046183
146	0x3d3b7238	0.045763224
147	0x3dc9dc99	0.09856529
148	0x3df65140	0.12027216
149	0x3de74804	0.11293033
150	0x3c759a90	0.014990464
151	0x3e25fbec	0.16209382
152	0x3e9e162f	0.308763
153	0x3e380b46	0.1797305
154	0xbe207067	-0.15667878
155	0xbd896444	-0.06708577
156	0x3e3153ad	0.17317076
157	0x3e013027	0.12616025
158	0x3d8507fa	0.06495662
159	0x3e8c229b	0.27370152
160	0xbe6e29df	-0.2325816
161	0xbdcca80c	-0.0999299
162	0x3c87bf2f	0.016570656
163	0xbe999ed6	-0.30003995
164	0xbe405aaf	-0.18784593
165	0x3e49df3b	0.19714062
166	0xbd6eae33	-0.058271598
167	0xbd37e32a	-0.044894375
168	0x3ebce791	0.3689542
169	0xbdb1faf5	-0.086904444
170	0x3d6ec61b	0.058294397
171	0x3de57747	0.11204391
172	0xbcc57fb3	-0.024108743
173	0x3ea35824	0.31903183
174	0x3e7cb4b1	0.24678303
175	0x3d7b5c4d	0.06136732
176	0x3ea1c55f	0.31595895
177	0x3c9b7350	0.018975884
178	0x3de0a204	0.10968402
179	0xbd977b3a	-0.073965505
180	0x3e08efb1	0.13372685
181	0xbdf4c73c	-0.119520634
182	0xbdce577e	-0.100752816
183	0xbceb2b95	-0.028707305
184	0x3e922537	0.28544018
185	0x3e1454ca	0.1448547
186	0xbdfdf3e2	-0.124000326
187	0x3ca6bd50	0.020353943
188	0x3d3e5398	0.04646644
189	0x3d5e8a7c	0.054331288
190	0xbdabd97e	-0.08391093
191	0xbc65239b	-0.01398554
192	0xbe61aa38	-0.2203759
193	0xbded97e9	-0.1160124
194	0x3e49a4e5	0.19691809
195	0x3c84073a	0.016116727
196	0x3e793749	0.24337496
197	0x3e27397e	0.16330525
198	0xbe0ae0b5	-0.13562281
199	0xbd36e236	-0.044649325
200	0x3f1bafc2	0.6081506
201	0xbd67b738	-0.056571215
202	0x3e2d011d	0.16894956
203	0x3e343d52	0.17601517
204	0x3da4a91a	0.08040066
205	0x3d4d553f	0.050130125
206	0x3ee99ba2	0.4562655
207	0x3de87354	0.11350122
208	0xbd23611e	-0.03988754
209	0x3e475fc3	0.19470124
210	0x3e2f9cbc	0.17149633
211	0xbdb2c4c9	-0.0872894
212	0x3ea0f793	0.31438884
213	0x3e1306c2	0.14358047
214	0x3d3c554f	0.045979794
215	0xbe7407a6	-0.23831043
216	0xbdd01f4b	-0.10162219
217	0xbe01c8e9	-0.12674297
218	0xbe321a50	-0.1739285
219	0xbd32f880	-0.04369402
220	0x3e547f0a	0.20751587
221	0xbe4e5ab2	-0.20151785
222	0xbcbe6747	-0.023242606
223	0x3db3369d	0.08750651
224	0xbdeb22d4	-0.11481252
225	0xbcafafd5	-0.021446148
226	0x3dd167a2	0.102248445
227	0xbda3256c	-0.07966122
228	0x3dcf7c0b	0.10131081
229	0x3dc146e7	0.09437352
230	0x3db65b29	0.08904106
231	0x3e643a04	0.22287756
232	0x3e163fcf	0.14672779
233	0x3d0bda3e	0.03414368
234	0x3e2f80a3	0.17138915
235	0xbd6d9cbc	-0.0580108
236	0x3d8b92e6	0.06815128
237	0xbca172ff	-0.019708155
238	0x3cf146b3	0.029452657
239	0xbcf3a776	-0.029742938
240	0x3eca685d	0.39532748
241	0x3f2804c7	0.6563229
242	0x3e1e889c	0.154818
243	0x3ec2b9f2	0.3803249
244	0xbba4e463	-0.0050321086
245	0x3cf39dbf	0.029738305
246	0x3d977bb5	0.07396642
247	0xbdc72b42	-0.09725048
248	0xbe8901a1	-0.26759055
249	0x3d786a40	0.060648203
250	0x3daadf71	0.08343399
251	0xbd29627c	-0.041353688
252	0x3d532b6f	0.051555093
253	0x3e352bc3	0.17692475
254	0xbe2a5564	-0.16634136
255	0xbe47f25e	-0.1952605

lstm.weight_hh_l0 f4 [256, 64]
0	0x3e188105	0.14892967
1	0x3bba4c62	0.005685375
2	0xbe37faa0	-0.179667
3	0xbdb709ed	-0.0893744
4	0x3e7d7ac8	0.24753869
5	0xbc15677d	-0.009118912
6	0x3d11a5f4	0.035558656
7	0x3dd7a1e7	0.10528927
8	0x3de45db9	0.11150689
9	0xbd764704	-0.06012632
10	0x3db67bfd	0.08910368
11	0xbeaaa541	-0.33329204
12	0xbd272fea	-0.04081718
13	0x3d918a39	0.07106442
14	0xbe746b8e	-0.23869154
15	0x3dc59267	0.09647065
16	0xbe69c23a	-0.22827998
17	0x3d253fdf	0.040344115
18	0xbda7fd94	-0.08202663
19	0xbe334dff	-0.17510222
20	0x3dcd707a	0.10031219
21	0xbea06750	-0.3132882
22	0xbe2c31e0	-0.16815901
23	0x3b9ab17d	0.0047208653
24	0x3e183e7d	0.14867587
25	0xbe1901ee	-0.14942142
26	0xbc44d0e8	-0.012012698
27	0xbc82a225	-0.015946457
28	0xbe7b77bb	-0.24557392
29	0xbe24752e	-0.16060326
30	0x3c31d139	0.010853105
31	0x3e335a66	0.17514953
32	0x3e833fea	0.256347
33	0xbdbf58cb	-0.09343108
34	0x3dbf62bd	0.09345005
35	0xbe888fb3	-0.26672134
36	0x3e6e6ca7	0.23283635
37	0x3e0a1fc1	0.13488676
38	0xbd8ec8ee	-0.06971918
39	0x3d3cbc65	0.046078105
40	0xbea011c1	-0.31263545
41	0xbe10df52	-0.1414769
42	0x3eb693b9	0.35659578
43	0xbe6f5f0b	-0.233761
44	0x3de3cdf0	0.11123264
45	0x3db57be6	0.088615224
46	0xbdf70b08	-0.12062651
47	0xbdd87eff	-0.105710976
48	0x3e836de9	0.25669792
49	0xbc28350f	-0.010266556
50	0xbe2757bc	-0.16342062
51	0x3e004f76	0.12530312
52	0x3b102a26	0.0021997779
53	0xbe1e15d5	-0.15438016
54	0xbd23809e	-0.03991758
55	0xbd61822f	-0.055055793
56	0x3e0393a7	0.12849294
57	0x3e78fd63	0.2431541
58	0xbe487069	-0.19574131
59	0x3d544b09	0.05182937
60	0x3e563605	0.20919044
61	0xbe01d793	-0.12679891
62	0x3e10a1e6	0.1412426
63	0xbe3eee4a	-0.18645588
64	0xbb1d5015	-0.0024004031
65	0x3e455fcd	0.19274826
66	0xbde5b2ea	-0.11215766
67	0x3ddfabd4	0.109214455
68	0x3d9cf928	0.0766471
69	0xbe1e05a9	-0.15431847
70	0xbecd223b	-0.40065178
71	0x3d6f634b	0.058444303
72	0xbeadc6f8	-0.33940864
73	0x3d8c03c4	0.06836656
74	0x3e321688	0.17391407
75	0x3dfc1b58	0.12309903
76	0xbec77623	-0.3895732
77	0x3e27db78	0.16392314
78	0xbdf9e0d0	-0.12201083
79	0x3ea3f499	0.3202255
80	0xbdc77eeb	-0.097410046
81	0xbe1ce1c0	-0.15320492
82	0x3e6bfcfa	0.23045722
83	0x3e3085f7	0.17238604
84	0x3e16a94a	0.14713016
85	0xbd08215f	-0.03323495
86	0xbe08de09	-0.1336595
87	0xbd9bb6cc	-0.07603225
88	0xbe40b193	-0.18817739
89	0xbe2aa195	-0.16663201
90	0xbc9b595b	-0.018963506
91	0x3df10a22	0.11769511
92	0xbe596787	-0.21230899
93	0x3d81362d	0.06309161
94	0xbe1b585e	-0.15170428
95	0x3dd72aa0	0.10506177
96	0xbe99bdb0	-0.30027533
97	0xbde452b7	-0.11148589
98	0x3ec7f758	0.39055896
99	0xbd5bc1e2	-0.053651698
100	0x3b55105a	0.0032510967
101	0xbe2ea236	-0.17054066
102	0xbc44c171	-0.012009011
103	0x3d8756e6	0.066083714
104	0x3d9539a1	0.072863825
105	0xbe076a39	-0.13224114
106	0xbe4315a2	-0.19051221
107	0xbe0cd7e6	-0.13754234
108	0xbd1eb8ab	-0.03875033
109	0x3e807dc4	0.25095952
110	0x3bb3db09	0.0054887575
111	0xbdc123c2	-0.094306484
112	0x3e2f655e	0.17128512
113	0xbe352a70	-0.1769197
114	0xbe428362	-0.18995431
115	0x3e22710e	0.1586344
116	0x3e85ba3f	0.26118657
117	0xbe02789a	-0.12741318
118	0x3cda423e	0.026642915
119	0x3e1f4ba9	0.15556206
120	0x3e0a4b3c	0.13505262
121	0xbe24d1c8	-0.1609565
122	0xbdef87a5	-0.11695794
123	0xbbf70979	-0.007538971
124	0xbdf5ef18	-0.12008494
125	0xb9c5c3e7	-0.00037720727
126	0xbeb46744	-0.35235035
127	0xbdb66da1	-0.08907629
128	0x3e640397	0.22266994
129	0x3e00ef2f	0.12591241
130	0xbe8ad48d	-0.27115288
131	0xbea464e3	-0.3210822
132	0xbd594cc1	-0.053051714
133	0x3cfedfbc	0.031112544
134	0xbe803b5b	-0.25045285
135	0xbea603f2	-0.32424885
136	0xbcd8e79d	-0.02647763
137	0xbe11c3dd	-0.14234872
138	0xbd383f9a	-0.04498253
139	0x3e804421	0.25051978
140	0x3e47f551	0.19527175
141	0x3e1d6026	0.15368709
142	0xbc085102	-0.008320095
143	0xbcabb655	-0.020960966
144	0x3dcaa396	0.09894483
145	0xbd0d75eb	-0.034536283
146	0x3b653e67	0.0034979822
147	0x3d87e246	0.06634955
148	0xbbb6bfa3	-0.005577044
149	0x3c1f5e5a	0.009727085
150	0xbd795617	-0.060873117
151	0xbdcd4877	-0.10023587
152	0x3e4594e4	0.19295079
153	0xbe8c02d0	-0.27345896
154	0xbd8b217c	-0.06793496
155	0xbe3244d6	-0.17409071
156	0x3e30d8b7	0.1727017
157	0x3dc2f7d8	0.09519929
158	0xbe2c0393	-0.16798238
159	0x3e0b6fb9	0.13616838
160	0xbea5dc38	-0.32394576
161	0x3e61dbc0	0.22056484
162	0x3ea7bd41	0.32761577
163	0x3bb1d51f	0.0054270173
164	0xbeb120d2	-0.34595352
165	0x3d2e2ef6	0.042525254
166	0x3d140b77	0.036143746
167	0x3d95f5f1	0.073223
168	0xbc50bb8e	-0.012740029
169	0xbd4ec1c9	-0.050477777
170	0x3ea94a4d	0.330645
171	0xbca47f8d	-0.020080352
172	0xbd3dc507	-0.046330478
173	0xbeb07a83	-0.3446847
174	0xbdb5f7bc	-0.08885142
175	0x3d89e94f	0.06733953
176	0x3d05ecaf	0.032696422
177	0xbeb6cb8b	-0.35702166
178	0x3b5b11d6	0.003342738
179	0xbd0f3ea3	-0.034971844
180	0x3da33205	0.07968525
181	0xbe28071a	-0.16408959
182	0xbdbcefef	-0.09225451
183	0xbe35d91d	-0.17758603
184	0xbeaf48cd	-0.3423523
185	0xbeaaff3c	-0.33397853
186	0x3c1ecc1b	0.009692217
187	0x3ebcbc9c	0.36862648
188	0xbe51def1	-0.20495202
189	0xbde11bd1	-0.10991634
190	0xbdcc6fb4	-0.09982243
191	0x3d87ce59	0.066311546
192	0xbe87db43	-0.2653447
193	0xbe191860	-0.14950705
194	0xbe1545f8	-0.14577472
195	0xbe51bcdd	-0.20482202
196	0x3e6eab42	0.23307517
197	0xbe010a38	-0.12601554
198	0x3ed8cbe2	0.4234305
199	0x3e83fbfd	0.2577819
200	0xbeab112f	-0.33411548
201	0xbdfb6375	-0.12274829
202	0x3b55751c	0.0032571023
203	0x3e3125f2	0.17299631
204	0x3cd1164b	0.025523325
205	0x3e1069c5	0.14102848
206	0x3ec02536	0.3752839
207	0xbe11cff1	-0.1423948
208	0xbd82b3fc	-0.063819855
209	0xbe31bcfb	-0.17357247
210	0xbc572eae	-0.013133688
211	0xbd0d010d	-0.03442483
212	0xbeac54fb	-0.33658585
213	0x3d42577a	0.047446705
214	0xbec2155f	-0.3790693
215	0xbdd0bc33	-0.10192146
216	0xbce9550c	-0.028482936
217	0x3e1a44e8	0.15065348
218	0x3d2a887d	0.04163407
219	0x3d04039f	0.032230016
220	0xbd7586a9	-0.059942875
221	0x3e1092c0	0.1411848
222	0xbe1db8af	-0.15402482
223	0x3c2e7f13	0.010650414
224	0x3e25496a	0.16141286
225	0xbdf14917	-0.11781519
226	0xbdd1f506	-0.10251813
227	0x3e825d4b	0.25461802
228	0x3e417eb0	0.18895984
229	0xbe86d04e	-0.263308
230	0x3d968041	0.07348681
231	0xbeb38ac7	-0.35066816
232	0x3e8f79ed	0.2802271
233	0xbe056c6e	-0.13029644
234	0x3d3d2ceb	0.046185415
235	0xbd44a5b6	-0.048009597
236	0x3e8b8cea	0.27255946
237	0x3e924373	0.28567085
238	0x3df908ff	0.12159919
239	0x3dc2798b	0.09495839
240	0xbea8e0ae	-0.32983917
241	0xbe2d7304	-0.16938406
242	0x3e538b7c	0.20658678
243	0xbe260eee	-0.16216633
244	0xbe0ff5ab	-0.14058559
245	0x3e20118a	0.1563169
246	0xbd692f91	-0.05693013
247	0xbd1805ff	-0.037115093
248	0xbe983a94	-0.29732192
249	0x3e06179f	0.13094948
250	0xbd411e37	-0.047147956
251	0xbc07623d	-0.008263168
252	0x3e3279e0	0.17429304
253	0xbe12e6b2	-0.14345816
254	0xbdbec372	-0.09314622
255	0x3e690850	0.22757077

lstm.bias_ih_l0 f4 [256]
0	0x3d8e37b0	0.06944215
1	0x3b4de4fd	0.0031417005
2	0x3c126707	0.008935696
3	0xbdaf15b9	-0.08549065
4	0xbdec60ba	-0.11541887
5	0x3d3df469	0.046375666
6	0x3d74c043	0.059753668
7	0xbd962b92	-0.07332529
8	0xbe18482a	-0.14871278
9	0xbdf0eb14	-0.117635876
10	0x3c687bfe	0.014189718
11	0xbe361f62	-0.17785409
12	0xbbc697f9	-0.006060597
13	0x3d9ecc21	0.07753778
14	0x3e844524	0.25834
15	0xbd7e9570	-0.062154233
16	0x3d705a72	0.058680005
17	0xba139c45	-0.0005630891
18	0xbd587403	-0.052845012
19	0x3e08df97	0.13366543
20	0xbd8fbb46	-0.070181414
21	0xbdb2b6c5	-0.08726267
22	0x3bd6391f	0.006537571
23	0xbe3953fe	-0.18098447
24	0xbe925df2	-0.285873
25	0xbe9a0b16	-0.30086583
26	0x3c63e1b9	0.013908797
27	0xbdef2543	-0.11677029
28	0xbe600fd3	-0.21881036
29	0xbe4f6f52	-0.20257309
30	0x3d5d0d7b	0.053967934
31	0xbdbc909e	-0.09207271
32	0xbda63025	-0.081146516
33	0xbe3b0529	-0.18263687
34	0xbe619702	-0.22030261
35	0xbd9116f6	-0.070844576
36	0xbdb3fc33	-0.087883376
37	0xbe255dec	-0.1614911
38	0xbc08ed08	-0.008357294
39	0x3cd5e0d6	0.026108187
40	0x3e111159	0.14166774
41	0xbe333493	-0.17500524
42	0xbe585a47	-0.21128188
43	0xbe343a90	-0.17600465
44	0xbe30ffed	-0.17285128
45	0xbd8e8304	-0.06958583
46	0xbe2e1a4d	-0.1700222
47	0xbb13da91	-0.0022560696
48	0xbe22c417	-0.15895115
49	0x3e1fdbb6	0.15611157
50	0x3d323608	0.04350856
51	0x3dfe34fe	0.12412451
52	0x3e7711a5	0.24127825
53	0xbe903e23	-0.28172407
54	0xbe3e2474	-0.18568593
55	0xbe908a0b	-0.28230318
56	0x3c5bcc83	0.013415459
57	0xbe74e0ec	-0.23913926
58	0xbec6746f	-0.38760707
59	0xbe34961e	-0.1763539
60	0xbdb127f9	-0.08650202
61	0x3e088613	0.13332395
62	0xbe1744e1	-0.14772369
63	0xbe85ed91	-0.2615781
64	0xbbef2624	-0.007298248
65	0x3d90e5ad	0.07075057
66	0xbd85a8fc	-0.06526372
67	0xbdea540d	-0.11441813
68	0xb988db03	-0.00026103118
69	0x3b558857	0.0032582486
70	0x3d9d2ffe	0.076751694
71	0xbe303c27	-0.17210446
72	0xbdf606e2	-0.120130315
73	0x3d73b100	0.059494972
74	0xbda95577	-0.08268254
75	0xbdf2e9aa	-0.11860974
76	0x3dfb8304	0.122808486
77	0xbe0fc9ce	-0.14041826
78	0x3cfc1611	0.03077224
79	0xbe8cdf91	-0.27514318
80	0x3a78cf17	0.0009491308
81	0xbd634f35	-0.05549546
82	0x3ddcee7f	0.10787677
83	0x3c19af62	0.009380193
84	0xbe0cc586	-0.13747224
85	0xbc3f69b0	-0.011682913
86	0xbe2c8ee9	-0.16851391
87	0x3d513e03	0.05108453
88	0xbe4c7b04	-0.19968802
89	0xbe245768	-0.16048968
90	0x3e1ff521	0.15620853
91	0x3e0dad86	0.13835725
92	0xbdfd3d6f	-0.12365233
93	0xbe5651f0	-0.20929694
94	0x3d28ccbe	0.041210882
95	0xbe31cec6	-0.17364034
96	0xbdc6a050	-0.09698546
97	0xbcbefbe2	-0.023313466
98	0xbdec7acc	-0.11546859
99	0xbcad436c	-0.021150313
100	0xbda413e6	-0.08011608
101	0xbe13f8fd	-0.1445045
102	0xbcac6290	-0.021043092
103	0x3ddd6036	0.108093664
104	0xbc7dd9e7	-0.0154938465
105	0xbd0d18b3	-0.034447383
106	0xbe06ab30	-0.1315124
107	0xbe871d86	-0.26389712
108	0xbdc331c8	-0.095309794
109	0xbe16c10a	-0.14722076
110	0xbd9030b9	-0.07040543
111	0xbd1b1d78	-0.0378699
112	0xbdcd50af	-0.10025155
113	0x3c919e6f	0.017775742
114	0x3d7ec52c	0.062199757
115	0xbd81c879	-0.06337065
116	0xbd1c9060	-0.038223624
117	0xbe7744a6	-0.24147281
118	0xbd093c12	-0.033504553
119	0xbdba2299	-0.0908863
120	0xbbd5bfb1	-0.0065230955
121	0xbe97c437	-0.29641888
122	0xbe568cdb	-0.2095217
123	0x3cb87de1	0.022520961
124	0xbc20af99	-0.009807491
125	0xbd7f7f14	-0.06237705
126	0xbdf1932b	-0.11795648
127	0xbe38945f	-0.18025349
128	0xbe3e636f	-0.18592618
129	0x3e47cd74	0.19511968
130	0x3dc57f64	0.096434385
131	0x3e46c0cb	0.19409482
132	0x3e7bbc1e	0.2458348
133	0xbd99f1a2	-0.07516791
134	0xbcff8679	-0.031192051
135	0x3cfc3d99	0.03079109
136	0xbdafa947	-0.08577209
137	0x3d746350	0.059665024
138	0xbd68c58a	-0.056829013
139	0x3e08b8a3	0.13351683
140	0x3e2f28e9	0.1710545
141	0x3e8bbe46	0.27293605
142	0xbe18464f	-0.1487057
143	0x3e4b8b92	0.1987746
144	0xbcbc4dec	-0.022986375
145	0x3e3b6545	0.1830035
146	0x3dab26c1	0.08357001
147	0x3e472f7c	0.19451708
148	0x3d65f528	0.056142002
149	0xbe01d287	-0.12677966
150	0x3ccd8b98	0.025090978
151	0xbe2e4a53	-0.1702054
152	0xbdcbf4c5	-0.099587955
153	0xbdab6efb	-0.08370777
154	0x3e23865f	0.15969227
155	0x3d95c0d6	0.07312171
156	0x3e4f15fd	0.20223232
157	0xbe61355c	-0.21993011
158	0xbe7aac9f	-0.24479912
159	0x3dea3a3b	0.11436888
160	0x3d77989a	0.060448267
161	0xbe6524ed	-0.22377367
162	0xbd30f3b3	-0.04320116
163	0x3e0c33c5	0.13691624
164	0x3d3b7577	0.04576632
165	0x3e2ac839	0.16677941
166	0xbe64f50b	-0.22359101
167	0xbc928317	-0.017884774
168	0xbe2bcbfd	-0.16777034
169	0x3d23095a	0.03980384
170	0xbd4cf765	-0.05004062
171	0xbdd21349	-0.102575846
172	0xbe1d2987	-0.15347873
173	0x3e6ee5d6	0.23329863
174	0xbe4ec034	-0.20190507
175	0x3e2b64ff	0.16737746
176	0xbe2453da	-0.16047612
177	0x3d93b4fe	0.07212256
178	0xbe5ab751	-0.21358992
179	0x3e8032b9	0.25038698
180	0x3e975764	0.2955886
181	0xbd84773d	-0.064680554
182	0xbde990a0	-0.11404538
183	0x3dc940a2	0.09826781
184	0x3d676420	0.05649197
185	0xbe5bee23	-0.2147756
186	0xbdea321b	-0.11435338
187	0x3dafebf8	0.08589929
188	0xbe1cff11	-0.15331675
189	0x3e3ba95d	0.18326326
190	0x3ba6385a	0.0050726356
191	0xbd9cd839	-0.07658429
192	0xbdffa53b	-0.12482687
193	0xbdb25f6f	-0.08709609
194	0xbdac4ed3	-0.08413472
195	0xbe4410a8	-0.19146979
196	0xbdfeba24	-0.12437847
197	0x3dbfe0ea	0.09369071
198	0x3d29a3dc	0.041416034
199	0xbe070cee	-0.13188526
200	0x3b4bc269	0.003109122
201	0x3e18c388	0.14918339
202	0x3cbef0c7	0.023308171
203	0xbdad54f0	-0.08463466
204	0x3c11e5ac	0.008904856
205	0xbe2d851e	-0.16945311
206	0x3e08ff2e	0.13378593
207	0xbd7738c7	-0.06035688
208	0xbdab7275	-0.0837144
209	0xbe0b4eb2	-0.13604239
210	0x3de1f4a5	0.1103299
211	0xbe31796b	-0.17331474
212	0xbe36fab5	-0.17869075
213	0xbe2ee83d	-0.1708078
214	0xbe79a651	-0.24379851
215	0xbe02bf63	-0.1276832
216	0xbd8a979b	-0.06767198
217	0xbdcc74a6	-0.099831864
218	0x3dfa5df1	0.12224949
219	0xbde0a0a1	-0.109681375
220	0xbc229c5d	-0.009924975
221	0xbe0ea9cd	-0.13931961
222	0xbb7dd584	-0.0038732002
223	0xbda966aa	-0.08271535
224	0x3df75fbe	0.12078808
225	0xbc905eae	-0.017623272
226	0xbd8ef73d	-0.06980751
227	0xbcac0cee	-0.02100226
228	0xbe2c43c0	-0.1682272
229	0xbced4a4b	-0.02896609
230	0xbe0dd12b	-0.13849322
231	0x3d8e0526	0.06934576
232	0x3d1ee4fc	0.038792595
233	0xbb4b02a6	-0.003097692
234	0xbd34109e	-0.04396116
235	0xbd423f85	-0.04742386
236	0xbe4647ab	-0.19363277
237	0xbe0bb44b	-0.13642995
238	0xbd94b284	-0.07260612
239	0xbcb75ddf	-0.022383628
240	0xbd4579e8	-0.048211962
241	0x3a0ebecc	0.0005445301
242	0x3b93f1e7	0.004514921
243	0x3db365fc	0.08759686
244	0x3da3ed8b	0.08004292
245	0xbe87ef50	-0.26549768
246	0xbd0974ac	-0.033558533
247	0xbe1e1e4e	-0.15441248
248	0xbdeb1b84	-0.114798576
249	0xbdb1e27a	-0.08685775
250	0xbe8adaf4	-0.27120173
251	0xbdde8c77	-0.10866635
252	0xbcc794c7	-0.024362935
253	0xbd3b9bd3	-0.045802902
254	0xbd7f4515	-0.06232174
255	0xbea39722	-0.31951243

lstm.bias_hh_l0 f4 [256]
0	0xbde04c8e	-0.10952102
1	0x3c8216b4	0.015879966
2	0x3bd4c589	0.0064932746
3	0xbe562b85	-0.20915039
4	0xbe0fe664	-0.14052731
5	0x3c1556b8	0.009114914
6	0x3bfedc1b	0.0077777035
7	0xbe433c58	-0.19065988
8	0xbc4f5589	-0.0126546705
9	0xbe08ac3f	-0.13346957
10	0xbdccbc49	-0.0999685
11	0xbe6d0beb	-0.23149078
12	0x3cb4cbd1	0.022069843
13	0x3e0ef96c	0.13962334
14	0x3e8f2d47	0.2796423
15	0xbdbee003	-0.093200706
16	0xbd18a592	-0.037267275
17	0xbdb5f810	-0.08885205
18	0x3b238108	0.0024948735
19	0x3da63230	0.08115041
20	0xbd8afbe0	-0.067863226
21	0x3dc5c1e4	0.09656122
22	0xbe59c47d	-0.2126636
23	0xbd1d9a21	-0.038477067
24	0xbe2c3307	-0.1681634
25	0xbe0c8342	-0.13721946
26	0x3e4cb2ec	0.19990128
27	0xbe919688	-0.2843516
28	0xbe2fa6b4	-0.17153436
29	0xbdb84eda	-0.08999415
30	0x3d2725f3	0.040807676
31	0xbea42ad6	-0.3206393
32	0xbcfe5539	-0.031046497
33	0xbd8ef303	-0.069799446
34	0xbd841db8	-0.06450981
35	0xbdde05dd	-0.10840962
36	0xbdd99be9	-0.106254406
37	0xbe3b08df	-0.18265103
38	0x3d748bab	0.05970351
39	0xbd0705ef	-0.032964643
40	0x3e0adc1a	0.13560525
41	0xbe329c84	-0.17442518
42	0xbd6c934f	-0.057757672
43	0xbdd9eec5	-0.10641245
44	0xbe301c34	-0.17198259
45	0xbcfc9bb4	-0.030835964
46	0xbe60da64	-0.2195831
47	0xbe698e77	-0.22808252
48	0xbd399fb3	-0.045318317
49	0x3dea4144	0.1143823
50	0x3e1bfd7c	0.15233415
51	0x3cc2881a	0.023746539
52	0x3e151696	0.14559397
53	0xbe817f2a	-0.2529233
54	0xbe446226	-0.19178066
55	0xbe901640	-0.28141975
56	0xbd4af155	-0.04954656
57	0xbdc1b6d8	-0.09458703
58	0xbecee3b3	-0.40408096
59	0xbe544918	-0.20731008
60	0xbd7a1dd6	-0.06106361
61	0xbce00250	-0.027344853
62	0xbe84ad1a	-0.25913316
63	0xbe61def4	-0.22057706
64	0xbc5ab235	-0.013348152
65	0x3e591b56	0.21201834
66	0xbdeb18bd	-0.11479328
67	0xbe2f2bb2	-0.17106512
68	0xbdd94fb4	-0.10610905
69	0xbd764009	-0.060119662
70	0xbd9d675b	-0.07685729
71	0xbd123219	-0.035692308
72	0xbe09f20c	-0.1347124
73	0xbda487d6	-0.08033721
74	0xbc5f8aa0	-0.013643891
75	0xbe5f73e7	-0.21821557
76	0x3dc0564d	0.093914606
77	0xbe4489d3	-0.19193201
78	0x3e0163c2	0.12635711
79	0xbe3eed97	-0.18645321
80	0x3d8c15cb	0.06840094
81	0xbe1df4fa	-0.15425482
82	0xbd915a10	-0.07097256
83	0xbc8879ce	-0.016659644
84	0xbdfdacd4	-0.1238648
85	0x3de2f943	0.11082699
86	0x3cc5730f	0.024102716
87	0x3db1afa8	0.08676082
88	0xbe55f00f	-0.20892356
89	0xbeaf3928	-0.34223294
90	0xbb84ed3c	-0.004056601
91	0xbd282cf4	-0.041058496
92	0xbdb6aff9	-0.08920283
93	0xbdc9dab9	-0.09856171
94	0x3dcce249	0.10004098
95	0xbdd9af24	-0.106291085
96	0xbdb6a756	-0.089186355
97	0x3daa2f76	0.08309834
98	0xbe024efe	-0.12725446
99	0xbdb92fd4	-0.090423256
100	0xbdcb5849	-0.099289484
101	0xbcd7cb03	-0.02634192
102	0xbde1fdce	-0.110347375
103	0xbd8d0791	-0.06886209
104	0x3da54626	0.080700204
105	0x3d38c288	0.045107394
106	0xbd9595fb	-0.07303997
107	0xbe832394	-0.2561308
108	0x3d5eebff	0.054424282
109	0xbe2d0592	-0.16896656
110	0xbe25850b	-0.16164033
111	0xbd968f26	-0.07351522
112	0x3b66b010	0.0035200156
113	0xbe2656c7	-0.1624404
114	0x3d7a5036	0.06111165
115	0xbd4bab5e	-0.049723975
116	0xbd9fa918	-0.07795924
117	0xbe878adc	-0.2647313
118	0x3d35ec65	0.044414897
119	0xbe23b98f	-0.15988754
120	0x3bb0a791	0.005391069
121	0xbe9d3062	-0.30700976
122	0xbe266952	-0.16251114
123	0xbe585fab	-0.21130244
124	0xbd8900e2	-0.066896215
125	0x3cef7aca	0.029233355
126	0xbe2a9748	-0.16659272
127	0xbe93e937	-0.28888866
128	0xbdf2d132	-0.11856307
129	0xbbdb6988	-0.00669593
130	0xbd9a9fa3	-0.075499795
131	0x3e40daeb	0.1883351
132	0x3e8bf336	0.27333993
133	0x3d8a8355	0.06763331
134	0xbe407eca	-0.18798366
135	0x3dff636d	0.12470136
136	0x3dd40320	0.103521585
137	0xbe286ea2	-0.16448453
138	0x3d8eff75	0.06982318
139	0x3d803ed2	0.06261982
140	0x3c756829	0.014978447
141	0x3df242f7	0.11829179
142	0xbe5170b4	-0.20453149
143	0x3e676786	0.22598085
144	0xbdc7b68c	-0.09751615
145	0x3d91b5b2	0.07114734
146	0x3df28006	0.11840825
147	0x3cf70220	0.03015238
148	0x3d55ec87	0.052227523
149	0xbe81f980	-0.25385666
150	0xbdc74323	-0.09729602
151	0xbe1681e0	-0.14697981
152	0xbda77269	-0.08176119
153	0xbd274193	-0.04083402
154	0x3e25ad02	0.16179278
155	0x3dc3e950	0.09565985
156	0x3dea7b91	0.1144935
157	0xbdea09db	-0.11427661
158	0xbe0451ec	-0.12921876
159	0x3da64697	0.08118933
160	0x3d1ac84f	0.037788685
161	0xbdc4a32b	-0.09601434
162	0x3e184b17	0.14872395
163	0x3bc29ad2	0.005938866
164	0xbadf7877	-0.0017049451
165	0x3e0094d7	0.12556778
166	0xbe649ad5	-0.22324689
167	0xbd19bbae	-0.0375325
168	0xbe3fe6f1	-0.18740441
169	0xbd8a9b85	-0.06767944
170	0xbd5b2ff7	-0.05351254
171	0xbe32160b	-0.17391221
172	0xbd29ad6f	-0.041425165
173	0x3e6bb255	0.23017247
174	0xbe2cbd68	-0.16869128
175	0x3e0bf8a0	0.13669062
176	0xbda6077b	-0.081068955
177	0x3e0c8cfb	0.13725655
178	0xbcb955fc	-0.022624008
179	0x3e06d833	0.13168411
180	0x3e910dd9	0.28330877
181	0x3de39958	0.111132324
182	0xbd809c71	-0.06279839
183	0xbdcda483	-0.10041144
184	0xbc1c1b4e	-0.009527994
185	0xbe053e5d	-0.13012071
186	0x3d779655	0.060446102
187	0xbcad86e2	-0.021182481
188	0xbdabffaf	-0.08398377
189	0x3e68ad51	0.22722365
190	0xbe41c338	-0.18922126
191	0x3b7abed6	0.003826072
192	0x3d1fd6bf	0.039023157
193	0xbbad3c7a	-0.0052867504
194	0x3c283c64	0.0102683045
195	0xbddc62e0	-0.107610464
196	0x3deb4246	0.1148725
197	0xbda144e0	-0.07874465
198	0xbe10b208	-0.14130414
199	0x3bb59617	0.0055415737
200	0xbe1d0367	-0.15333329
201	0x3d45c20a	0.048280753
202	0xbdd35d7e	-0.103205666
203	0xbe19bd0e	-0.15013525
204	0xbd628c4e	-0.055309586
205	0xbe009af1	-0.12559105
206	0x3d7fbc76	0.06243559
207	0xbd941b86	-0.07231812
208	0x3ce0231e	0.027360495
209	0xbe859239	-0.26088122
210	0xbdaf78a1	-0.0856793
211	0x3c9c0edc	0.019050054
212	0xbc29d42a	-0.010365525
213	0xbcb2640f	-0.021776227
214	0xbda68b3f	-0.08132028
215	0xbe0b494f	-0.13602184
216	0xbe0acae7	-0.13553964
217	0xbe62b618	-0.22139776
218	0x380afb0d	3.3135573e-05
219	0x3d9b6556	0.07587688
220	0xbe54771c	-0.20748562
221	0xbea16bad	-0.31527463
222	0xbc044c3a	-0.008074814
223	0xbe71f257	-0.23627602
224	0x3e18643d	0.14881988
225	0xbe37375f	-0.17892216
226	0xbe356b6a	-0.17716756
227	0xbdade67a	-0.084912255
228	0x3c84583a	0.016155351
229	0xbe47640e	-0.19471762
230	0xbe9631e5	-0.29334942
231	0xbdd0fc48	-0.10204369
232	0x3cde822f	0.027161686
233	0xbdd43ade	-0.103627905
234	0xbe3ebeb2	-0.18627432
235	0xbd612571	-0.054967348
236	0xbdca4072	-0.09875573
237	0x3a5ccab8	0.00084225414
238	0xbe3e80e7	-0.1860386
239	0xbb88f31e	-0.0041793725
240	0xbc958730	-0.018252939
241	0xbe38d746	-0.1805087
242	0x3dc99073	0.098420046
243	0x3c4e27d5	0.012582739
244	0x3e42527d	0.1897678
245	0xbe8175ad	-0.25285092
246	0x3bb8051b	0.005615843
247	0xbdab9cc0	-0.08379507
248	0xbd90e155	-0.07074229
249	0xbdfe00d2	-0.124025
250	0xbe272198	-0.16321409
251	0xbc994d29	-0.01871355
252	0xbe27d660	-0.16390371
253	0xbd02308c	-0.03178458
254	0x3d005e85	0.03134014
255	0xbe8523eb	-0.26003966

lstm.weight_ih_l0_reverse f4 [256, 48]
0	0x3da416c9	0.080121584
1	0xbdc5e4f2	-0.096628085
2	0xbdf082e7	-0.11743718
3	0xbdacec68	-0.084435284
4	0x3e2f2bab	0.17106502
5	0x3d4a375c	0.0493692
6	0x3e82cdbd	0.2554759
7	0xbe5d56ee	-0.21615192
8	0xbe3fbb04	-0.18723685
9	0x3c5d3015	0.013500233
10	0x3e58c72c	0.21169728
11	0xbe229c6f	-0.15879987
12	0xbe8ab0ea	-0.270881
13	0xbeb3cda1	-0.3511782
14	0xbdf9783f	-0.12181138
15	0x3e0ce145	0.13757809
16	0xbe20a0bd	-0.15686317
17	0xbe668c2a	-0.22514406
18	0x3e9c8132	0.30567318
19	0x3d93069c	0.07178995
20	0x3cb8d48b	0.022562286
21	0xbe897247	-0.26845
22	0x3ed64a7b	0.418537
23	0x3e272f01	0.16326524
24	0xbe119a58	-0.14219034
25	0xbe7ee2f9	-0.2489127
26	0x3e1348aa	0.14383188
27	0xbb5cc497	-0.0033686513
28	0xbca7542f	-0.020425884
29	0x3dc1f748	0.09470993
30	0x3dae0e13	0.08498778
31	0x3de9368e	0.113873586
32	0xbe4d4ccc	-0.20048827
33	0x3d8c4e16	0.06850831
34	0xbc307740	-0.010770619
35	0xbbbd8ce0	-0.005784616
36	0x3e49f0e1	0.19720794
37	0xbcad2294	-0.021134652
38	0x3d5849fa	0.052804925
39	0x3e00f7cc	0.12594527
40	0x3e0815cf	0.1328957
41	0x3dc9e522	0.09858157
42	0x3df03267	0.117283635
43	0x3d9094ba	0.07059617
44	0xbda263ee	-0.07929216
45	0xbebf76f9	-0.37395456
46	0x3ecf1ec5	0.40453163
47	0xbd37ee6a	-0.044905104
48	0x3cc09ace	0.023511317
49	0x3e0ffa81	0.14060403
50	0x3d2caac6	0.04215505
51	0x3e87048c	0.26370656
52	0xbde1a6bc	-0.1101813
53	0x3df27091	0.118378766
54	0x3de5cf0b	0.11221131
55	0x3c91f29e	0.017815884
56	0xbe88f95a	-0.2675274
57	0x3d1e044e	0.038578324
58	0xbe86fffb	-0.26367173
59	0xbc016fa7	-0.007900155
60	0xbe8aa4ce	-0.2707886
61	0xbcf48b1e	-0.029851492
62	0x3c62e912	0.013849514
63	0xbdf71096	-0.120637104
64	0x3e16feea	0.1474568
65	0x3dc96b9d	0.09834979
66	0xbe31505c	-0.17315811
67	0xbea9b86e	-0.3314852
68	0x3d55d495	0.052204687
69	0xbe964e2e	-0.2935652
70	0x3e0510ea	0.12994733
71	0xbd3c8e0f	-0.046033915
72	0x3ee41218	0.44545054
73	0x3e7bb314	0.24580032
74	0xbe228b09	-0.1587335
75	0x3cdef5a5	0.027216742
76	0xbd08d4b2	-0.033405967
77	0x3d68f8d8	0.05687794
78	0xbe626802	-0.22109988
79	0xbdf27848	-0.11839348
80	0x3ebd8aca	0.3701995
81	0x3d226237	0.039644446
82	0x3d7cf89c	0.06176053
83	0x3b727780	0.0036997497
84	0xbe1e42ba	-0.15455142
85	0xbd82bed4	-0.06384054
86	0x3d4fed79	0.05076358
87	0x3d7a219c	0.06106721
88	0xbcc8116d	-0.024422372
89	0x3de75205	0.11294941
90	0xbe8e3755	-0.2777659
91	0xbd6fd034	-0.058548167
92	0x3d4bc0a4	0.049744263
93	0x3d501846	0.0508044
94	0x3c4df624	0.0125708915
95	0xbea279c4	-0.31733525
96	0x3e620867	0.22073518
97	0x3e8ac097	0.2710006
98	0x3dd98675	0.10621349
99	0x3e36a6f1	0.1783712
100	0xbe57db96	-0.21079859
101	0x3dce8bc2	0.100852504
102	0x3ee81889	0.4533122
103	0xbe8a8712	-0.27056175
104	0x3e3cb0cc	0.18426818
105	0x3de0043c	0.10938308
106	0x3e41df34	0.18932801
107	0xbcd1e759	-0.02562301
108	0xbe978c65	-0.295993
109	0xbdea4e39	-0.11440701
110	0x3e0e8b3d	0.13920303
111	0x3d3f7d02	0.046750076
112	0xbecb9a16	-0.39765996
113	0x3dead06a	0.11465533
114	0xbe4dbdf7	-0.20091997
115	0x3dac9ef0	0.084287524
116	0x3dd2f96e	0.10301481
117	0xbdca5d87	-0.0988112
118	0x3e46bb5c	0.1940741
119	0xbd714230	-0.058901012
120	0xbed47fd8	-0.41503787
121	0xbe60bd1b	-0.21947138
122	0xbd7e7572	-0.062123723
123	0xbde32a9b	-0.11092111
124	0x3d85f621	0.06541086
125	0x3d34766f	0.04405826
126	0x3ed2e772	0.41192204
127	0xbe2ea265	-0.17054136
128	0x3d9140f6	0.070924684
129	0x3e338421	0.17530872
130	0x3c7e1160	0.015507072
131	0xbd48a840	-0.04898858
132	0xbe182f8c	-0.14861888
133	0xbe4d9497	-0.20076214
134	0xbc3324fe	-0.010934113
135	0xbd414f66	-0.04719486
136	0x3e0d1ea0	0.13781214
137	0x3e0946fe	0.13405988
138	0xbe03f4f7	-0.12886415
139	0x3aa0da80	0.0012272149
140	0x39bb1600	0.0003568381
141	0x3e4e7309	0.2016107
142	0x3df3c59d	0.11902926
143	0x3e395723	0.18099646
144	0x3d4ff950	0.050774872
145	0xbe05c2de	-0.13062617
146	0x3e32a98d	0.17447491
147	0x3dc2bfba	0.09509225
148	0x3d68b0a7	0.056809094
149	0x3d954b7a	0.07289787
150	0x3c9e66fc	0.019336216
151	0xbdcaca63	-0.099018835
152	0xbb2a766a	-0.0026010522
153	0xbe7d3e3e	-0.24730775
154	0xbe901e92	-0.28148323
155	0xbbd5108a	-0.0065022158
156	0xbe77349a	-0.2414116
157	0xbf05c45d	-0.5225275
158	0xbe1aeb02	-0.15128711
159	0xbe1d51e7	-0.15363275
160	0xbd8edabe	-0.069753155
161	0xbe1a6cbf	-0.15080546
162	0x3deeab5c	0.11653778
163	0x3e43ea3c	0.19132322
164	0xbe08bd9b	-0.13353579
165	0xbe9e9f02	-0.30980688
166	0x3f069092	0.52564347
167	0x3de26bfe	0.11055754
168	0x3d32d95a	0.043664314
169	0xbe77f2ec	-0.24213761
170	0x3e251962	0.16122964
171	0x3ec2a94e	0.38019794
172	0xbc9b6698	-0.018969819
173	0x3d1b17b0	0.037864387
174	0xbb2fd4b6	-0.0026829666
175	0xbe04433f	-0.12916277
176	0xbe783165	-0.24237593
177	0xbbd45a63	-0.0064805015
178	0x3dd2ff6e	0.103026256
179	0xbc441020	-0.011966735
180	0x3d9ee0e6	0.0775774
181	0x3eb02553	0.34403476
182	0x3dff5e90	0.12469208
183	0xbcdd8b6d	-0.027044022
184	0xbeb0df5b	-0.34545407
185	0xbe7f09b3	-0.24906044
186	0x3da6ab2b	0.081381164
187	0xbd5c5974	-0.053796247
188	0xbd1a65cc	-0.037694737
189	0xbe030191	-0.12793566
190	0x3f049d56	0.51802576
191	0xbc2594e0	-0.010106295
192	0x3e913536	0.2836091
193	0xbc3ef9f6	-0.011656275
194	0xbe19675c	-0.14980835
195	0x3df4b924	0.11949375
196	0xbe99b6ce	-0.3002228
197	0xbeaee4ea	-0.34159023
198	0xbdbb732a	-0.09152825
199	0x3e08e10e	0.13367102
200	0x3e333417	0.1750034
201	0xbe1302d9	-0.14356555
202	0x3d2c4e67	0.042066958
203	0xbdf326a2	-0.11872603
204	0xbdc58e3b	-0.09646269
205	0x3ea2d99f	0.31806657
206	0x3d1abe7d	0.03777932
207	0xbe0c654c	-0.13710517
208	0x3dd73f99	0.10510177
209	0xbe82006a	-0.2539094
210	0xbdd187e5	-0.10230998
211	0xbde0c4fa	-0.1097507
212	0xbeb24cbf	-0.34824178
213	0x3de8f5ca	0.113750055
214	0xbeaa59b6	-0.3327157
215	0xbd1489ec	-0.036264345
216	0xbd090a63	-0.03345717
217	0x3e39903b	0.18121426
218	0xbe96d8ba	-0.29462224
219	0xbed356b6	-0.41277093
220	0xbded9dc7	-0.11602359
221	0xbe8767e7	-0.2644646
222	0x3dbda0dd	0.09259198
223	0xbd8a0873	-0.06739893
224	0x3c75aefe	0.014995335
225	0x3e45a8fc	0.19302744
226	0xbd1d88d0	-0.038460553
227	0xbd0e6728	-0.034766346
228	0x3dd91bc9	0.10601003
229	0x3c79a662	0.015237423
230	0xbd60fb9d	-0.054927457
231	0x3db8fce2	0.090326086
232	0xbea6c9f1	-0.32575944
233	0x3ddcfdd5	0.10790602
234	0x3dee722e	0.11642872
235	0x3dccab84	0.099936515
236	0xbde338dc	-0.110948294
237	0x3dfd01d5	0.12353865
238	0x3d9c64d5	0.0763642
239	0xbd581c51	-0.05276138
240	0x3e0f3fc5	0.1398917
241	0xbe61530b	-0.22004335
242	0x3e5befc6	0.21478185
243	0xbd8128d6	-0.06306617
244	0x3e1ad05e	0.15118548
245	0x3e486a35	0.19571765
246	0x3d7ef44b	0.062244695
247	0xbd6f6d2a	-0.058453716
248	0x3ed0bb66	0.40767974
249	0xbca6f829	-0.020382004
250	0x3e84a6e1	0.25908569
251	0xbe2ceec7	-0.16887961
252	0xbe719a41	-0.23594
253	0xbbfade05	-0.0076558613
254	0x3dc19c28	0.094536126
255	0x3e04b092	0.12957981

lstm.weight_hh_l0_reverse f4 [256, 64]
0	0xbc70c560	-0.014695495
1	0x3d6fcd45	0.05854537
2	0xbeed0aed	-0.46297398
3	0xbe8ed6a5	-0.27898136
4	0x3c8ad328	0.01694639
5	0xbdba0d8b	-0.09084614
6	0x3d842012	0.064514294
7	0x3e3d08b5	0.18460353
8	0x3dd4bbed	0.103874065
9	0x3df79664	0.120892316
10	0x3d3dbc55	0.046322186
11	0xbd6bbab6	-0.05755111
12	0xbe025b2a	-0.12730089
13	0x3e414979	0.18875684
14	0xbd90a759	-0.07063169
15	0xbdc8d323	-0.09805896
16	0xbe39c40a	-0.18141189
17	0x3d3dee4f	0.046369847
18	0x3e0512ba	0.12995425
19	0x3cd2e337	0.02574311
20	0xbe2a31d6	-0.16620573
21	0xbd1b06a6	-0.037848137
22	0xbe477eeb	-0.19482009
23	0x3cde928a	0.027169485
24	0xbdb4ef25	-0.08834676
25	0xbdf7da13	-0.12102141
26	0xbd4a77c0	-0.04943061
27	0x3d62cc29	0.055370484
28	0x3d8b1857	0.06791752
29	0x3dcce6a8	0.10004932
30	0x3d33d062	0.0438999
31	0xbc0e0d4b	-0.0086701615
32	0xbd930538	-0.0717873
33	0xbc135247	-0.008991784
34	0xbdc7463e	-0.097301945
35	0x3d9ca561	0.07648731
36	0xbe44699b	-0.1918091
37	0xbe674e3f	-0.22588442
38	0x3d6d2145	0.057893056
39	0x3d91264c	0.07087383
40	0x3e1a9cfa	0.15098944
41	0x3e390e40	0.18071842
42	0xbdc27343	-0.09494641
43	0x3dd50aae	0.104024276
44	0x3d8f98e1	0.07011581
45	0x3c0f31b3	0.008739877
46	0xbe8bb0f3	-0.2728344
47	0xbde1eef5	-0.110319056
48	0x3eb66eb4	0.35631335
49	0x3d62a641	0.055334333
50	0x3de019ff	0.10942458
51	0x3cb7d0d1	0.022438439
52	0xbdb41436	-0.087929174
53	0x3c9af8b2	0.018917415
54	0x3e7a9103	0.2446938
55	0x3e50cb4e	0.20390055
56	0x3cfba747	0.030719412
57	0x3e48f21f	0.19623612
58	0x3daef688	0.08543116
59	0x3e2535d5	0.16133817
60	0xbdf072e8	-0.11740667
61	0xbcc29bab	-0.023755869
62	0x3dd3eb02	0.103475586
63	0xbca4708c	-0.020073198
64	0x3c0c42b2	0.008560823
65	0xbc32309b	-0.010875846
66	0xbeac142a	-0.33609134
67	0x3dfa61d8	0.122256935
68	0x3dbb3bf4	0.091422945
69	0xbe8391e2	-0.25697237
70	0x3db85013	0.08999648
71	0xbe2732c5	-0.16327961
72	0x3d8c2829	0.068435974
73	0xbd281190	-0.041032374
74	0xbe2406f5	-0.16018279
75	0xbe42f63e	-0.19039246
76	0xbe3224ad	-0.17396803
77	0xbdbc4fc0	-0.091948986
78	0x3bacd68b	0.005274599
79	0xbc71bf88	-0.014755137
80	0xbdea6a99	-0.11446113
81	0xbd047223	-0.03233541
82	0x3cb061bc	0.021530978
83	0x3dfe9aba	0.124318555
84	0x3def9103	0.11697581
85	0x3e12ce61	0.1433654
86	0x3d24cb14	0.040232733
87	0xbe3bf0cc	-0.18353575
88	0x3d946b61	0.072470434
89	0x3dbd3383	0.09238341
90	0xbe26c226	-0.16284999
91	0xbdfc0880	-0.12306309
92	0x3e7d15e0	0.24715376
93	0xbcc28f91	-0.023750098
94	0x3e851446	0.2599203
95	0x3e6543cd	0.22389145
96	0x3d740856	0.059578262
97	0x3db6b0b2	0.08920421
98	0xbe983a75	-0.297321
99	0x3e419f06	0.18908319
100	0x3d76df87	0.060271766
101	0x3e615fae	0.22009155
102	0xbc32d816	-0.010915777
103	0xbe81aa0e	-0.25325054
104	0xbd183867	-0.037163164
105	0x3da047db	0.07826205
106	0x3e6bef54	0.23040515
107	0x3e3726a8	0.1788584
108	0x3dbc1767	0.09184151
109	0x3ddea8fe	0.108720765
110	0xbd37da0f	-0.04488569
111	0xbbfb500a	-0.0076694535
112	0x3da1e5a5	0.07905129
113	0xbc3e77da	-0.0116252545
114	0x3e0c38d6	0.13693556
115	0x3e83631f	0.2566156
116	0x3db75b98	0.08953017
117	0xbe8d1cfe	-0.27561182
118	0x3d9becc0	0.07613516
119	0xbdd47e26	-0.103756234
120	0x3de08fdd	0.1096494
121	0x3ec9e607	0.3943331
122	0x3e46eb19	0.1942562
123	0x3e73093a	0.23733988
124	0xbd2dbf9e	-0.04241907
125	0xbda4659c	-0.08027193
126	0xbc8b55e9	-0.017008739
127	0xbd86f50a	-0.06589706
128	0x3d957f92	0.07299723
129	0xbe44a1d4	-0.19202358
130	0x3d528644	0.051397577
131	0x3e839466	0.25699157
132	0xbd4c1820	-0.049827695
133	0xbe83b140	-0.2572117
134	0x3ba498ef	0.005023114
135	0xbe400d93	-0.18755178
136	0xbe15d324	-0.14631325
137	0x3e818e2a	0.25303775
138	0x3e542101	0.20715715
139	0x3b8839b0	0.0041572675
140	0x3dcd3aef	0.10021006
141	0xbe243cd5	-0.1603883
142	0xbc226172	-0.009910928
143	0xbdbcceb6	-0.092191145
144	0xbe2fea17	-0.17179142
145	0xbdbb5741	-0.09147502
146	0xbe887472	-0.2665134
147	0x3e61e7e4	0.22061116
148	0xbe23a29b	-0.15979998
149	0xbeb72ffa	-0.3577879
150	0xbde66f8a	-0.11251743
151	0x3df2ff81	0.1186514
152	0xbe27e3af	-0.16395448
153	0x3e85c23e	0.26124758
154	0xbda7b0cf	-0.081880204
155	0xbc5fb002	-0.013652803
156	0xbdd00bf5	-0.101585306
157	0x3e2b65fe	0.16738126
158	0xbe0db853	-0.13839845
159	0xbf0dde0e	-0.55416954
160	0x3ecd6217	0.401139
161	0x3e9c57fa	0.3053587
162	0xbe164a8b	-0.14676873
163	0x3bf2a46d	0.007404855
164	0x3e7c19b3	0.24619178
165	0xbcdd6db8	-0.027029857
166	0x3ce7e39e	0.028306779
167	0xbd768c3f	-0.060192343
168	0x3e90d1ad	0.2828497
169	0xbe961191	-0.29310277
170	0xbec9e4ed	-0.3943247
171	0xbc5219c1	-0.012823523
172	0x3e29431f	0.16529511
173	0xbdf8d630	-0.12150228
174	0x3d40087e	0.0468831
175	0xbd2c687f	-0.042091843
176	0x3e25047f	0.16114996
177	0x3c13c073	0.009018051
178	0xbe657040	-0.22406101
179	0x3ea1602a	0.3151868
180	0x3ddd52c3	0.10806801
181	0x3cb8e27a	0.02256893
182	0x3e42464c	0.18972129
183	0xbe120237	-0.14258657
184	0x3df2fc50	0.11864531
185	0x3c9d785b	0.019222429
186	0xbe072075	-0.13195975
187	0xbdeaffb7	-0.11474555
188	0x3d1f050a	0.038823165
189	0xbdcc8e8f	-0.099881284
190	0xbe9afd0f	-0.30271193
191	0x3d9fee59	0.07809133
192	0xbdeca2e9	-0.1155451
193	0xbe5493fd	-0.20759578
194	0x3b1a52f5	0.0023547981
195	0xbdec4221	-0.115360506
196	0x3e5e57dd	0.21713205
197	0xbd68b7a3	-0.056815755
198	0xbe77db01	-0.24204637
199	0xbe5a3ea1	-0.21312954
200	0xbdd715ea	-0.10502227
201	0x3e785e34	0.24254686
202	0xbe71fe9a	-0.23632279
203	0xbeb87862	-0.36029345
204	0x3de0802a	0.10961945
205	0xbe2fcbd1	-0.17167594
206	0xbcb73ce3	-0.0223679
207	0xbe76dde9	-0.2410809
208	0xbe5b5ec1	-0.21422864
209	0xbc2768b8	-0.010217838
210	0xbe23063d	-0.15920348
211	0x3e11ad08	0.14226162
212	0xbe7aec9d	-0.24504323
213	0xbca0fd50	-0.019652039
214	0x3e6d0e9f	0.23150109
215	0x3e0447ca	0.1291801
216	0x3eaf5375	0.3424336
217	0x3eec4910	0.46149492
218	0x3e530235	0.2060631
219	0x3dae4b5d	0.08510468
220	0x3eae703e	0.3407001
221	0x3b988d07	0.0046554836
222	0x3e5aae1e	0.21355483
223	0x3cd6d078	0.026222453
224	0x3dfbf5e6	0.12302761
225	0xbe435788	-0.1907636
226	0x3e8e62fd	0.27809897
227	0x3ef1a323	0.47194776
228	0x3e8d3113	0.27576503
229	0x3d718214	0.058961943
230	0x3d84d516	0.064859554
231	0x3e615d8e	0.22008345
232	0x3c199df4	0.009376038
233	0xbc722458	-0.014779173
234	0x3d37dba0	0.044887185
235	0xbe04a1dd	-0.12952371
236	0x3e55e3d2	0.20887688
237	0xbea3cc29	-0.319917
238	0xbc293ace	-0.010328962
239	0x3e0d3a7f	0.13791846
240	0x3e8bea9e	0.27327436
241	0xbcc6eb83	-0.024282223
242	0x3e002076	0.12512383
243	0x3e3549b0	0.17703891
244	0x3e19391c	0.14963192
245	0x3d592029	0.053009186
246	0xbe62fb77	-0.22166239
247	0x3d87fca4	0.06639984
248	0x3e6acbb1	0.22929265
249	0xbd7783f9	-0.060428593
250	0xbd1fc718	-0.03900823
251	0x3e352ec4	0.17693621
252	0xbe06e7f0	-0.13174415
253	0xbd0c2d9f	-0.034223195
254	0x3cde3bc3	0.027128106
255	0x3d9f0c59	0.07766027

lstm.bias_ih_l0_reverse f4 [256]
0	0xbe9a1896	-0.30096883
1	0xbbf0f271	-0.00735312
2	0x3da8a586	0.08234696
3	0x3d8afc2d	0.0678638
4	0xbd816e53	-0.06319871
5	0xbc8029ca	-0.015644927
6	0xbb6b4a4a	-0.0035902434
7	0xbdae9e56	-0.08526294
8	0xbea26a91	-0.3172193
9	0xbd7a6a1d	-0.061136354
10	0xbe8f1a42	-0.2794972
11	0xbcbce704	-0.023059376
12	0xbdaabb13	-0.08336463
13	0xbe5a1a9c	-0.21299213
14	0xbeaa4d1e	-0.3326196
15	0xbdac3811	-0.08409131
16	0x3d5892e0	0.052874446
17	0xbdc75a9b	-0.097340785
18	0xbe186919	-0.14883842
19	0xbd50c958	-0.050973266
20	0xbb415799	-0.0029501675
21	0xbda92b71	-0.08260239
22	0xbe0b7e04	-0.1362229
23	0xbe042ae9	-0.12906994
24	0xbdcb4eb3	-0.0992712
25	0xbcba79dc	-0.022763185
26	0xbe247ec3	-0.16063981
27	0xbe9d3943	-0.3070775
28	0xbe08815c	-0.13330597
29	0xbe8cc84b	-0.2749656
30	0xbe00f3cc	-0.12593001
31	0xbd9a4919	-0.075334735
32	0xbdeb6114	-0.114931256
33	0xbd54246b	-0.051792543
34	0xbe654217	-0.22388493
35	0x3db25dad	0.087092735
36	0x3be27273	0.006910616
37	0x3d89a08b	0.06720074
38	0xbe5222ba	-0.2052106
39	0xbe3027fd	-0.17202754
40	0xbdf18a1e	-0.11793922
41	0xbe3a5192	-0.18195179
42	0xbd9e264d	-0.07722149
43	0x3d82f915	0.06395165
44	0xbdd2cca0	-0.10292935
45	0x3e146757	0.14492546
46	0xbe2d4ef2	-0.16924646
47	0x3d1ae80d	0.037818957
48	0x3e0efacb	0.13962857
49	0xbdb8f064	-0.09030226
50	0xbdc94afd	-0.09828756
51	0xbe7c5c47	-0.24644576
52	0xbe0fda34	-0.14048082
53	0xbd4f5e1c	-0.05062686
54	0xbcfd8e78	-0.030951723
55	0xbe99ea22	-0.30061442
56	0xbe443eee	-0.19164631
57	0xbe3ff8f2	-0.18747309
58	0xbe372676	-0.17885765
59	0xbdd8b4b6	-0.10581343
60	0xbd2ecd99	-0.042676542
61	0xbc0f45cb	-0.008744667
62	0xbb9679af	-0.0045921425
63	0xbde65302	-0.11246301
64	0xbe634ba0	-0.22196817
65	0xbdcd3f43	-0.10021832
66	0xbd1b8d8c	-0.037976786
67	0xbc1440fb	-0.009048696
68	0x3d94eda9	0.072718926
69	0xbe244cfa	-0.16044989
70	0xbd66864d	-0.056280423
71	0xbbb15e3e	-0.005412846
72	0xbe97eaf3	-0.2967144
73	0x3e80e6a5	0.25175968
74	0xbd824f5a	-0.06362791
75	0xbcb9cb1a	-0.022679854
76	0xbc839c5b	-0.016065767
77	0xbe415ac6	-0.18882284
78	0xbddd0a7a	-0.10793014
79	0x3da420ea	0.0801409
80	0xbd95bfb7	-0.07311957
81	0xbdd40491	-0.103524335
82	0xbddf7c80	-0.10912418
83	0x3dc231b8	0.09482139
84	0x3d0099e2	0.031396754
85	0xbd110801	-0.035408024
86	0xbe8da118	-0.27661967
87	0xbdba20a1	-0.09088255
88	0xbe7672dc	-0.24067253
89	0x3e155383	0.14582638
90	0xbd0af875	-0.033928353
91	0xbdd4462b	-0.10364946
92	0xbdeb1994	-0.11479488
93	0xbe9640de	-0.29346365
94	0x3e007ff1	0.12548806
95	0xbd09f449	-0.033680234
96	0xbd558f2c	-0.052138492
97	0x3b2f46d7	0.0026745105
98	0xbcee5945	-0.029095301
99	0xbda3878e	-0.079848394
100	0xbe0e0ce2	-0.13872102
101	0xbc174980	-0.009233832
102	0xbd5b7c91	-0.053585593
103	0xbda19ff4	-0.07891837
104	0x3d20dfa0	0.039275765
105	0xbe87fca0	-0.26559925
106	0xbbeb7108	-0.0071851052
107	0x3cac4ed6	0.021033686
108	0xbe4f6c6b	-0.20256202
109	0xbdd2e052	-0.10296692
110	0xbe005d56	-0.12535605
111	0xbda04d1d	-0.07827208
112	0x3d307837	0.043083396
113	0xbc7de206	-0.015495783
114	0xbdbf12c4	-0.09329751
115	0xbd707bce	-0.05871182
116	0x3d65e4c3	0.056126367
117	0xbda6827f	-0.08130359
118	0xbd6381f6	-0.055543862
119	0xbe00a9d7	-0.12564789
120	0x3d2d4dc8	0.042310506
121	0xbe8b8048	-0.27246308
122	0x3d4c80cc	0.049927518
123	0xbcf13da2	-0.029448334
124	0xbd8e5e22	-0.06951548
125	0xbafc9d77	-0.0019273002
126	0x3dc58251	0.096439965
127	0xbe196b4b	-0.14982335
128	0xbd49071e	-0.049079053
129	0x3e347ff9	0.17626943
130	0x3dff762d	0.12473712
131	0xbd02e844	-0.031959787
132	0xbdf34641	-0.11878634
133	0xbd1f90e7	-0.03895655
134	0xbd87b7ee	-0.06626879
135	0xbe54d69c	-0.20784992
136	0xbe86f04d	-0.2635521
137	0x3df57df6	0.11986916
138	0xbd868ba7	-0.06569605
139	0x3e8e3821	0.27777198
140	0xbcb81bee	-0.022474255
141	0xbe213ead	-0.15746565
142	0x3c3bd486	0.011464244
143	0x3e298fdb	0.16558783
144	0x3e6df9b3	0.23239784
145	0x3e0e96a0	0.13924646
146	0x3e65ba5e	0.22434375
147	0x3e4e864b	0.20168416
148	0x3e31ff1b	0.17382471
149	0xbdc503e0	-0.0961988
150	0xbdd42980	-0.10359478
151	0xbd84e7c7	-0.064895205
152	0x3d01be4f	0.031675633
153	0x3ca0f421	0.01964766
154	0xbba94bf5	-0.0051665255
155	0xbdd922ef	-0.10602366
156	0xbe3f3fc5	-0.1867667
157	0x3d3a6c0a	0.04551319
158	0x3dd1c70d	0.10243044
159	0xbe5e0fcd	-0.21685715
160	0x3dc6bf39	0.097044416
161	0x3b43ba77	0.002986578
162	0x3e272643	0.1632319
163	0xbe14e862	-0.14541772
164	0x3cafeede	0.021476205
165	0x3c9f3e0a	0.019438762
166	0x3e303f22	0.17211583
167	0xbd658455	-0.056034405
168	0x3e00d001	0.12579347
169	0x3b4fa4b9	0.0031683876
170	0xbc48093c	-0.012209233
171	0xbdceddb2	-0.10100879
172	0x3e1ab28b	0.15107171
173	0xbd669284	-0.056292072
174	0x3da181ce	0.078860864
175	0xbcb75564	-0.022379585
176	0xbe2726d2	-0.16323403
177	0x3d84bdee	0.06481539
178	0xbc63900d	-0.013889325
179	0xbe311817	-0.17294346
180	0x3e0f78f7	0.14010988
181	0xbe834103	-0.25635538
182	0x3e4d6f68	0.2006203
183	0x3d685c5e	0.056728713
184	0xbd5edd43	-0.05441023
185	0x3dc1faac	0.0947164
186	0x3cf03172	0.029320452
187	0x3de538ac	0.1119245
188	0xbd47ba69	-0.04876176
189	0xbe54b852	-0.20773438
190	0x3da7505a	0.08169623
191	0x3d8f673e	0.07002114
192	0xbec13da5	-0.37742344
193	0xbe76ca09	-0.24100508
194	0x3e4a2b76	0.19743142
195	0x3c8976a0	0.016780198
196	0xbe30fbff	-0.17283629
197	0xbe37b494	-0.17939979
198	0x3ceb6e5f	0.028739152
199	0xbe1b75c4	-0.15181643
200	0xbeaba3b3	-0.3352333
201	0xbddead54	-0.108729035
202	0xbe0b58cd	-0.13608094
203	0xbcb438ab	-0.021999678
204	0xbdfd5ca1	-0.12371183
205	0x3d16b0eb	0.036789816
206	0xbe69c530	-0.22829127
207	0x3d304350	0.043032944
208	0x3e7df8d9	0.24801959
209	0xbc853923	-0.016262596
210	0xbd69bcf1	-0.057064954
211	0xbdd29fdc	-0.10284397
212	0xbe685697	-0.22689281
213	0x3cfe5b65	0.03104944
214	0xbde62ef5	-0.11239425
215	0xbe06ea2d	-0.13175268
216	0xbe1fe87d	-0.15616031
217	0x3b4889d5	0.0030599732
218	0xbe4049e3	-0.18778186
219	0xbe84292c	-0.25812662
220	0xbd82f5e4	-0.06394556
221	0xbe80e9ce	-0.2517838
222	0xbda9d2e3	-0.082921766
223	0xbdcd09dd	-0.10011647
224	0xbca2024c	-0.019776486
225	0xbe095c2d	-0.13414069
226	0xbe1d1ca1	-0.15342952
227	0x3da16bf2	0.07881917
228	0xbcf232b0	-0.029565185
229	0xbd44ed8c	-0.048078105
230	0xbddd41c7	-0.10803562
231	0xbc8e5738	-0.017375574
232	0xbc037f81	-0.008026005
233	0xbdc6b61b	-0.097027026
234	0x3c42a7e4	0.011880849
235	0x3e39b8a0	0.18136835
236	0x3bd41ccf	0.006473161
237	0x3d4d70dc	0.05015646
238	0xbda4fffc	-0.08056638
239	0xbe114025	-0.14184625
240	0x3dbdbbb1	0.09264315
241	0xbd275742	-0.0408547
242	0x3d02411a	0.031800367
243	0xbd8f65b7	-0.070018224
244	0xbe271487	-0.16316424
245	0xbd9c6695	-0.076367535
246	0xbd3f7bf8	-0.046749085
247	0xbc49a360	-0.012307018
248	0xbe3b2335	-0.18275149
249	0xbe461796	-0.19344935
250	0xbda49ee3	-0.08038118
251	0x3c2b8e43	0.01047093
252	0xbd687285	-0.05674984
253	0x3c584507	0.013200051
254	0xbca8fc35	-0.020628074
255	0xbe8878d2	-0.2665468
