experiments/rep_detector_model_final.pth (torch, 635130 bytes, 17 tensors)

lstm.weight_ih_l0 f4 [256, 48]
00000000: 9f76 0abf c935 3c3e 31df 24be 6fbe 933e
00000010: 8ad7 ac3d 0967 bd3e 5cef ae3d 2f4b fe3b
00000020: edfc b4be 833e 07be ceb6 c2ba 8264 ed3c
00000030: 9251 2fbe b3fd 263e d403 0abe b349 febd
00000040: b463 213e ec09 33bd ea7a 1c3e bd15 dabe
00000050: 3c4a 643c 3b5a 70be 1607 a83d 9e92 a5bd
00000060: a735 54bc 31ed f03c 4cf4 dfbe dc21 4abd
00000070: 8c47 6dbd f41f 03be a71a b1bc f7df 413e
00000080: 9979 99be cdab 993e 7694 e1bd 809a 81ba
00000090: 5188 593d 5b34 d73c 77ec 7f3e 1162 8cbc
000000a0: f70d 3f3d 7f45 bfbe 821c 383e 4ead 8b3d
000000b0: bcd3 b43d ef98 b83d b398 603c f1af 31be
000000c0: b08b c43d f0f5 51be e30d bf3d 368a 0f3e
000000d0: 2fe9 a3be 4921 053e 3cee 62be a0c9 273e
000000e0: 54ba 19be e05f 4abd 9af2 79bd 9cc9 4cbc
000000f0: 814e 8cbc f768 053e 2824 4b3e 6093 2ebd
00000100: f3c5 483d 81dc e5bc 53ec 0ebe 0b4d 66bd
00000110: 9151 88be 4a68 6abd 2275 753d d0f1 93bd
00000120: 9168 923e 1d5f b93e c843 a4be aae2 6dbe
00000130: 2c7f ecbe 7718 cbbd ae90 cb3d 43a0 89bd
00000140: 1b2c 42bb 61a9 ce3d a024 983b 1016 6a3c
00000150: fefa 8b3e 6d43 913d e6f9 5fbd 5853 f23d
00000160: 894a 7d3e 3781 b3be a90a 4dbb 9a53 a43d
00000170: 7c6a f83d 1ba5 773e 78cf 953b f70a eb3c
00000180: 557b 983d 68ec c6bb 4974 90bd 2148 2dbd
00000190: 4515 80be 7496 45be 532e 1bbd 6cfa 053f
000001a0: 548e 07be 49a2 debd 2509 babd 660b 96be
000001b0: eb61 b53c 0325 2abc 0e12 91be 78b2 933b
000001c0: 911c febc ec10 bfbd d27c 353e a692 e7bd
000001d0: 49a7 fdbc f3b4 ed3d c7bb e93d 90f0 c43e
000001e0: 5ef4 1d3e b4e5 883e b509 213e 5bb7 d2bd
000001f0: b0f1 223e 12ba d53c 808c 033d 9516 a0bc
00000200: 95b4 3a3e aaf9 843b 60ad 223d 164b fa3d
00000210: febc a9bc 0aca 3dbd cc1a e43e 2e35 12bd
00000220: bd35 bc3e 4756 5f3d 8aaf 673e 08dd fd3d
00000230: f019 d23c 870a d9bd 5ab5 5fbd e45f 0b3e
00000240: bf4c ecbb 2c59 9e3c dac5 ef3d e097 a0bc
00000250: a8f2 8ebe 8565 b3be aead 113e 8201 0c3e
00000260: 3bfd a33e 1758 043d fc9f d03d 129c 63be
00000270: 64a8 20bd 6727 6abd f447 84bd 27cf 32be
00000280: 7b3a 72bd 28ad 2b3e d845 383e d329 2dbe
00000290: e182 1e3e 65b8 06bc 6e22 34bd 6ff5 583d
000002a0: 60f8 c63d 089a 41bc 62d4 4d3e 6896 89be
000002b0: b7d3 d9be 904d c53d 57ea b93e c110 213e
000002c0: 2bb7 bc3b 58fd 54be 2e65 f3bd 48ce 91bc
000002d0: 886c 12bc 423e d3bd f4cc e1bd 0250 68bd
000002e0: 7a91 523e 05f3 43be 8097 b4bd 908e 3ebc
000002f0: 107b 53bd 1a2a 0c3d 3636 493e f71b 503e
00000300: fe99 5b3e 591e 2f3d 85b0 153e a6df 3b3e
00000310: 14fa a93c d20f 993d 7d07 dcbd 7d6f 19bd
00000320: 7c40 4dbe f266 a4bc 0101 b83d 8937 ad3d
00000330: db58 813b f857 d43d 8424 363c 68b4 5abd
00000340: 52e1 f1bd e95a c63d cfbc 5ebd 12d8 5b3e
00000350: dc42 71bd c9bf 0abe 5eba 12be 4ddd aabd
00000360: 96e6 b8be 0f27 1f3e 32f0 1d3c 2474 94bd
00000370: acb7 dd3e 7caf 2dbe 5ab6 19be eab5 6e3e
00000380: 7369 36be 8d17 523d 68ed 9e3c d0ac b33c
00000390: 94c8 aebd ac20 0b3d 64e7 c6bc 9e82 c4be
000003a0: aceb 753c fd56 1cbe 130b 863e 6c99 55bd
000003b0: a04c 09bd 36b9 5dbe 7d94 6e3c aea0 a5be
000003c0: 5a41 483d ed96 2bbe 1af2 aabd 9119 68be
000003d0: 0707 00bd b69d 753c 1f98 62bc 92f0 32be
000003e0: 28f5 fe3d 0443 cabb f6ca c0bd c012 773e
000003f0: eb53 3abe b06a 313c 40d7 0e3e ef35 54be
-0.5408725 0.18379892 -0.16100766 0.28856227 0.08439548 0.36992672 0.08541748 0.0077604274
-0.35349217 -0.1320744 -0.0014855505 0.02897859 -0.1712096 0.16307716 -0.13478023 -0.12416401
0.1576069 -0.043710634 0.15281263 -0.4259471 0.0139337145 -0.2347192 0.082044765 -0.08084606
-0.012952245 0.029409977 -0.4374107 -0.049348697 -0.05792956 -0.12805158 -0.021619154 0.18933092
-0.29975584 0.30013886 -0.11014645 -0.0009887964 0.053108517 0.026270082 0.24992548 -0.017136605
0.046644177 -0.3735771 0.17979625 0.068201646 0.088294476 0.09013545 0.013708281 -0.17352273
0.09596956 -0.20503974 0.093288206 0.14017567 -0.32013842 0.13000979 -0.22161192 0.16385508
-0.15012485 -0.04940784 -0.06102238 -0.012499239 -0.017127277 0.13028322 0.19838011 -0.042621017
0.049016904 -0.028059246 -0.13957338 -0.056225818 -0.2662473 -0.057228364 0.05992616 -0.072238564
0.28595403 0.36205378 -0.32082963 -0.23230997 -0.46190774 -0.09916776 0.09939705 -0.067200206
-0.002962834 0.100909 0.004643038 0.014287487 0.2733993 0.070929386 -0.05468168 0.11832303
0.24735464 -0.3505952 -0.0031286872 0.08023758 0.12129685 0.24184076 0.0045718513 0.028691752
0.07445399 -0.0060706623 -0.0705343 -0.042305116 -0.25016227 -0.19295675 -0.037885975 0.5233524
-0.13237888 -0.10870797 -0.090837754 -0.2930557 0.022141417 -0.010384801 -0.28334087 0.004507359
-0.03101948 -0.093293995 0.17723396 -0.11307268 -0.030963557 0.11606779 0.11412769 0.38464785
0.1542525 0.2673775 0.15726359 -0.102888785 0.15912509 0.026089702 0.032116413 -0.019542018
0.18232949 0.0040580826 0.039716125 0.12221353 -0.020720001 -0.046335258 0.44551694 -0.035695247
0.3675975 0.05452564 0.22625557 0.12395674 0.025647134 -0.10597711 -0.05461631 0.13610798
-0.0072112973 0.01932963 0.11707659 -0.01960367 -0.27919507 -0.3503839 0.1422641 0.1367245
0.32029137 0.03231057 0.101867646 -0.22227505 -0.03922309 -0.057166483 -0.064590365 -0.17461835
-0.059137803 0.16765273 0.17995393 -0.16910486 0.15479614 -0.008222674 -0.043978147 0.05296844
0.097153425 -0.011816509 0.20100549 -0.26872563 -0.42544338 0.096339345 0.363116 0.15729047
0.00575914 -0.20799768 -0.11884533 -0.017798558 -0.008937009 -0.10314609 -0.1102542 -0.056716926
0.20563307 -0.19135673 -0.08817959 -0.011630669 -0.051631033 0.03421984 0.19649586 0.20323168
0.21445462 0.04275355 0.14618118 0.18347034 0.02074913 0.074737206 -0.10743616 -0.03745984
-0.2004413 -0.02006862 0.089845665 0.08457858 0.00394736 0.10368341 0.011117104 -0.053394705
-0.118105546 0.096853085 -0.05437928 0.21469143 -0.058901653 -0.13549723 -0.14328906 -0.08342991
-0.36113423 0.15542243 0.009639787 -0.072487146 0.43304193 -0.16961473 -0.15010968 0.23311582
-0.17813663 0.05129199 0.019400313 0.02193299 -0.08534351 0.033966705 -0.024280258 -0.38380903
0.015009802 -0.15267558 0.26180324 -0.052148268 -0.03352034 -0.21652684 0.01456177 -0.3234915
0.04889045 -0.16756792 -0.083469585 -0.22666003 -0.0312567 0.0149912145 -0.013830214 -0.17474583
0.124491036 -0.0061725397 -0.09413712 0.24128246 -0.18196075 0.010828659 0.13949299 -0.20723699

lstm.weight_hh_l0 f4 [256, 64]
00000000: 2ff3 1dbe 4a16 85be 18b6 593d 3adf 0a3d
00000010: 15f9 843e 67d4 da3e 3ab3 55bc fbb9 8f3e
00000020: 7e4f e03e 9116 153d 6a3f e2bd 647f 53bd
00000030: e183 103e 9315 243e 99f2 dc3c fe86 9cbe
00000040: a054 1a3e fb21 563d dc9e 29be 434e 27be
00000050: f449 203e 1685 3ebe 4914 a13e 4ce7 8b3e
00000060: f3be ebbc 7411 503d e910 a9bd e765 f03d
00000070: 578d abbd ff3a 0dbd eaad 813c 8ead 9fbd
00000080: 81e2 9e3d 026e 583e 64c6 ac3d 1394 8a3e
00000090: 5b65 f13d c0d4 613e ad55 c93d 3679 0abe
000000a0: b786 83be fffd 493d a864 84be da1c 853b
000000b0: 24b3 3f3e b273 e0be 0e4b 0c3e 5ff8 903d
000000c0: 94b0 f5be 3d46 7fbd 02c2 b5bd 4133 b9bd
000000d0: 4f9b bfbe ac69 a8bd 4ef7 0bbd 52c3 90bd
000000e0: ce93 d8bd 2e69 3bbe f271 ca3d 502c 8fbd
000000f0: a95a b8bb 88c2 833d 00ab f3bd f070 6f3e
00000100: 08f1 1a3d 1edb dbbd bb8a f8bc 7619 fe3d
00000110: db8c a53c 53f4 6c3e 7567 cdbd aff5 97ba
00000120: 6383 c6be 45c6 abbc ab0d 633e ac8c 9dbd
00000130: 531d 353e fc75 a03e ee5f 34be 1c77 4dbe
00000140: 8d7b 8cbd 7580 73be 9d5a febd 2070 5c3e
00000150: dfc4 18bc ddfa a73e 56f5 65bd ab18 413e
00000160: f41e bb3d a2c6 a7bd 8924 1b3e f2de d6bc
00000170: 5c70 ce3d 336a 94be 06d9 4ebd 2a57 01be
00000180: e3ca dc3c 548d 43be 349b 543e a985 253e
00000190: 78d9 323e fb2b e3bd 74d0 3bbd 7443 843e
000001a0: b348 013e 41d4 c9be 15ee d7be 833a ca3c
000001b0: fe04 ad3d 34bb 65bc b98c f53d d332 af3d
000001c0: c00e 873e 5224 24bd 8a0a 043e ca35 083d
000001d0: c310 bb3c 1eea f03d d7d0 023e aecc 523e
000001e0: 95e7 7ebe a99e 593d ee4a 06be 9ad4 35bd
000001f0: f06c 12be 651d acbd 6b70 00be 89c2 5b3e
00000200: 8d66 d23d 2f46 1a3d 513e 383d bd8e 18bc
00000210: 79ab 5abe 9203 4f3e db95 08be 270b 72bd
00000220: 562f 6fbe 10ea 233f 82f9 0cbe b5c1 e3bc
00000230: 09b7 22be 5bc2 a9be 218e 06be d195 b4bd
00000240: 64f1 473e 47be 92bb 5923 89be 2de7 1fbe
00000250: a901 2d3d fd78 273e 3cf7 4a3d 3561 953d
00000260: 19b9 2f3e 10b1 92bc a4e7 d6bd 2c32 ad3b
00000270: 2467 2a3e 0e39 eebc fe4e 523e 7b57 8bbe
00000280: c6c6 953e a895 d9bd 7be3 dabd 3e13 8c3e
00000290: d465 18be 4d78 443e 246d f03e 60c0 0cbc
000002a0: 801d 3bbd 8f23 59bd 6aa5 a9bd 3329 2abe
000002b0: 46e0 03be 9c21 023e 7b84 163d cd84 b6be
000002c0: 6bfe 3e3e 90a9 db3d b332 b63e 865c 103e
000002d0: f9d4 62bd 53a3 98be e685 80be 5189 383e
000002e0: 5a70 723d 20a5 7dbc c91c d13e 6b3f 16be
000002f0: 647b 57bd c708 313c aaf9 443d 6ee7 9e3d
00000300: 508b 08bd 6d1c b4bd be8a 23bd 6b08 45be
00000310: 2033 073d fda3 bebe df84 91be 9fa9 25be
00000320: 450e 413e de60 853c ca82 d63e 5f89 1bbe
00000330: a60b 103e 9ffb ff3d 63b7 47be 3553 6bbe
00000340: 6059 5f3d 7fa8 f03d f4b3 c3be 1064 42be
00000350: 96c0 a8be 5d94 18be 932e a1bd 433d 2cbc
00000360: e643 b1be aa82 c63d cf80 3d3d 2e9a 103e
00000370: 09d1 ad3e c498 733d 9291 b43e 5119 15be
00000380: 1901 3ebe 0174 5fbe 7988 8fbd 1a84 643e
00000390: 5394 9f3e c782 18bd f71d c33d f1a2 133d
000003a0: 12a6 933d 9197 893d e9ad 43be 86af 173d
000003b0: dd26 513e 5b54 07be 71bf 25bd 3aeb 123d
000003c0: 28a0 5ebc 5211 c03d 6b5d a0bd c392 6fbe
000003d0: 6744 e0bb 4e95 f43d 2e50 c73d 0d77 1b3e
000003e0: ffaa 7b3b 9962 c3bd f267 7a3d 3e80 b2bc
000003f0: add6 a43d 5e4c 8bbd 70fd 04be 3eac 123f
-0.15424798 -0.25993568 0.053152174 0.03390429 0.25971285 0.42740175 -0.013043219 0.2807158
0.43810648 0.036398474 -0.110472515 -0.05163516 0.14112808 0.16023855 0.026971148 -0.3057174
0.15071344 0.0522785 -0.16564506 -0.16338448 0.15653211 -0.18605456 0.3146079 0.27324903
-0.028777575 0.050797895 -0.082551785 0.11738186 -0.08376568 -0.03448009 0.015829999 -0.07796775
0.07758046 0.21135715 0.084362775 0.27066097 0.1178691 0.22053814 0.098307945 -0.13522801
-0.25688717 0.049314495 -0.25858045 0.0040622773 0.1872068 -0.4383827 0.13700506 0.07078623
-0.4798628 -0.062322844 -0.08874895 -0.09042979 -0.3742318 -0.0822328 -0.034171395 -0.070685044
-0.105750665 -0.18301842 0.098850146 -0.06990874 -0.005626042 0.06433588 -0.1189785 0.23382926
0.03782752 -0.10735153 -0.03033959 0.124072 0.020208767 0.23140077 -0.100294985 -0.0011593605
-0.38772115 -0.020968566 0.22173183 -0.07692847 0.17686968 0.31340015 -0.1761472 -0.20064968
-0.06859503 -0.23779471 -0.12419627 0.21527147 -0.0093242815 0.3280858 -0.056142174 0.18857066
0.09136763 -0.08192183 0.15150656 -0.026229355 0.100800246 -0.28987274 -0.05049994 -0.12630907
0.026952213 -0.19096881 0.2076233 0.16164269 0.1746577 -0.11092373 -0.045853093 0.25832713
0.12625389 -0.3941975 -0.4217383 0.024686104 0.08448218 -0.0140216835 0.11989731 0.08554616
0.2637844 -0.0400737 0.12894645 0.033254422 0.022835141 0.11763404 0.12774979 0.20585892
-0.24893029 0.053129826 -0.13114521 -0.044392206 -0.14299369 -0.08404044 -0.12542884 0.21460928
0.10273466 0.03766459 0.044981305 -0.009311375 -0.21354474 0.20216206 -0.13338415 -0.059092667
-0.23357901 0.64029026 -0.13767055 -0.027802328 -0.15890135 -0.33156094 -0.13140155 -0.08817638
0.19525677 -0.0044782492 -0.2678478 -0.1561553 0.04223791 0.16354747 0.049552187 0.072939314
0.17160453 -0.017906696 -0.10493401 0.005285522 0.16640908 -0.02907994 0.20537946 -0.2721518
0.29253215 -0.10624248 -0.1068792 0.2735843 -0.14882594 0.19186516 0.46958268 -0.008590788
-0.04568243 -0.053012427 -0.08283503 -0.16617279 -0.12878522 0.12708133 0.036747437 -0.35648194
0.1865174 0.10725701 0.35585555 0.14097795 -0.055378888 -0.29812106 -0.25102156 0.18021132
0.059189178 -0.015481263 0.40842274 -0.1467263 -0.05260791 0.010805315 0.04808966 0.077589855
-0.033335984 -0.08794484 -0.039927237 -0.19241492 0.03300774 -0.37234488 -0.28421685 -0.16177987
0.188531 0.016281541 0.4189666 -0.15189122 0.14066944 0.12499165 -0.1950355 -0.2298096
0.054528594 0.11750888 -0.3822323 -0.18983483 -0.3295943 -0.14900346 -0.078702115 -0.010512653
-0.34622115 0.09692891 0.04626542 0.14121315 0.33948544 0.05947186 0.3526731 -0.14560439
-0.18555106 -0.21821596 -0.07008452 0.22316018 0.3116785 -0.037234094 0.095272 0.036044065
0.0720941 0.06718362 -0.1910931 0.037032627 0.20424981 -0.13215773 -0.040465776 0.03586886
-0.013587989 0.093783036 -0.07830318 -0.23395829 -0.0068440917 0.1194254 0.0973209 0.15182133
0.0038401482 -0.095402904 0.061134286 -0.021789666 0.08048759 -0.06801675 -0.12987304 0.5729407

lstm.bias_ih_l0 f4 [256]
00000000: 4eed 36bd b014 e4bd 071e b6bd 1910 85bc
00000010: 30f8 eabd eb80 8cbe 9103 a8bd ccd8 31bc
00000020: 759c 913d 5231 673d ec0c 63be 13fe a7bd
00000030: 3af3 3a3d 2389 2ebe cabd 0bbd 2cb9 a3be
00000040: 9060 e8bc ab90 ac3c 2d67 b7bc 18ca 06be
00000050: a64e 89bd 390a dabd ea43 a1bd b3b1 36bd
00000060: f01c d33c 2055 183e bd1d e0bc 3d50 82be
00000070: 4c4e 43be a9c7 a9be 7592 90bd 5b48 74be
00000080: 53a9 bebd 1495 2f3e b1cf a33d f081 85be
00000090: 3b9d f8bd 8fbe 07be 3055 21bd 9945 97be
000000a0: 6683 423d 1084 493d 757a 5cbb 5a35 efbd
000000b0: c1d0 42bd bf19 a53d 9421 59be a096 b4bd
000000c0: f976 b13d 0c40 34be 8cca 52be 9986 fabd
000000d0: bd5a 9f3d d843 783c f80e efbc 1b2b d7bd
000000e0: 0b8f b2be ccc7 bbbd 669d 65be a8e1 1ebe
000000f0: fbc8 5bbe 463b d23c 952b 483e e9d0 ce3b
00000100: 980e 09be d033 e2bd ce2b 28be e34e 67bd
00000110: 7797 a3be fb1f 10be 97b7 b6bc a4b7 d9bd
00000120: 495a c4bd 2730 f4bd fdb1 11be 0354 2dbe
00000130: 5f9c d0bd 94fa 2c3d 060f 64bd 0f67 85bd
00000140: e5c3 4cbe 9eb5 1ebd 1716 99bd be2d 01be
00000150: bfb5 17bd 496c a3bd 0c21 e33c 54f2 8a3d
00000160: c6cb 41bc b1b2 ffbd 5a89 c9bd 4b4c 8abe
00000170: 1ee9 1fbe d986 12be 367f 1ebe 0c79 2fbe
00000180: 8af6 3abe 2b54 a2bd 6e63 ce3c 1b82 b0bd
00000190: 567b 9abd 4610 803d ad0c a7bd ab65 9abd
000001a0: 95aa 5cbd e6ea d93d ef12 9a3c 9d2d 84bc
000001b0: e4ba 86be ec02 29be 436c 343c e9b0 70be
000001c0: 72e7 fe3b 25c3 30be 628f 18be a130 93be
000001d0: 9709 ddbc 3134 c43c 84cc 89bb 0f1e bebd
000001e0: e1fb 69be cb77 41be c6fc 7cbe 11f5 32be
000001f0: 8e83 4bbd 725b dcbd f279 92bd 7fe5 4fbc
00000200: 397e b53d 41cb 823e cc27 0fbe 36cc 523e
00000210: 15d2 2e3d 09f0 efbc 44d5 8cbd c325 30be
00000220: 382a 0b3e 98dd b7bd 5060 ba3d a4dc 4f3b
00000230: 5d75 9f3d 3c4b 23be 23fc 3d3c 2cef 053d
00000240: 6fb8 15be 2c6b 22be 038f 963c 6ec0 913d
00000250: 70c9 d5bd 0022 8b3d 2eb4 52bd a775 d5ba
00000260: 9fbf 3abd 5a78 023e a0d0 1c3d 8fca d4bd
00000270: b78e 8cbd 50e2 1dbd a16f edbd e593 533c
00000280: 08da c5bd d568 303e 3a5a 3ebe 58e9 6bbd
00000290: 7624 2dbd cf95 f13d 7c08 13be a3f0 ddbd
000002a0: 55ff 8f3e f55d 493e 5c5e cbbd 994d b43c
000002b0: 981e c83d da95 1bbd 1eed a0bd 7c0f 28be
000002c0: 4c76 4ebd 32d9 87be ab01 3bbe 487a 26be
000002d0: c816 483c e97d 733e e238 f3bc 0b3f 79bd
000002e0: 82ed 5ebd 3841 0dbe ad52 263d ed3c 483e
000002f0: a210 653d f682 fc3d baf5 31be 196d eb3d
00000300: 5d02 05bd 8324 82be bf91 07be d515 08be
00000310: e082 40be 4e28 84be 63d6 cabd 7342 293e
00000320: f83a a8bd 6d51 bbbd 21fc b8bd 2c64 87be
00000330: 98a6 e7bb eb95 e0bd 355e ae3c bde0 0ebe
00000340: 28b3 a4be 937b 8f3d b4a2 bd3d d433 b1bd
00000350: 6814 993d da07 5fbe 6352 32be 6a1b 083e
00000360: 614e f43d 3cb9 d83d afc1 c8bd b3e7 a9be
00000370: e51c 2cbe df60 9fbe 647e 40be 2b44 6abe
00000380: da39 8b3c a358 973d 4d14 2f3d c96e a5bd
00000390: 2a35 083e 8ddc 8dbc c1c5 dd3d 1523 94be
000003a0: b136 3dbd f370 79bc 0911 4f3e 1fec 99bd
000003b0: 39c1 f0bd f066 b9bd c477 a9bd cead d9be
000003c0: 750e 25be 834e 53be f0cf bfbd 613e 74be
000003d0: be0b 513d bbd0 84bd a337 96be 110a 17be
000003e0: cf34 95be 2f83 1cbd 4a15 4ebe 96c4 d83c
000003f0: dd36 a9bd 689a b63d c55b a4bd 8d32 efbd
-0.044659905 -0.11136758 -0.08892446 -0.016243028 -0.11473119 -0.27442107 -0.08203805 -0.010854911
0.0710992 0.05644352 -0.22172898 -0.08202758 0.045642115 -0.17044501 -0.034116544 -0.31977212
-0.028366357 0.021065077 -0.022388065 -0.1316303 -0.06704454 -0.10646481 -0.07874282 -0.04460306
0.025770634 0.14876223 -0.02735793 -0.25451842 -0.19072837 -0.3316014 -0.070591845 -0.23855726
-0.0930964 0.17146713 0.07998598 -0.26075697 -0.12139364 -0.13256286 -0.03938788 -0.29545286
0.047488593 0.04919821 -0.0033642326 -0.11680098 -0.047562364 0.08061551 -0.21204215 -0.08817792
0.0866527 -0.17602557 -0.20585078 -0.12232704 0.07780979 0.015152894 -0.029181942 -0.105062686
-0.34874758 -0.091689676 -0.22423324 -0.15515769 -0.21463387 0.02566303 0.19547875 0.006311525
-0.13384473 -0.11045039 -0.1642296 -0.056471717 -0.31951496 -0.140747 -0.02230434 -0.1063073
-0.09587533 -0.11923247 -0.14228053 -0.16926579 -0.101860754 0.042231157 -0.05567839 -0.065137975
-0.19996603 -0.038747422 -0.074749164 -0.12615106 -0.03703856 -0.07979638 0.027725719 0.06784502
-0.0118283685 -0.124852546 -0.09840651 -0.27011332 -0.15616271 -0.14309253 -0.15478215 -0.1713602
-0.1825811 -0.0792621 0.025193896 -0.08618566 -0.07543056 0.06253104 -0.081567146 -0.07538923
-0.053873617 0.106405064 0.018807856 -0.016135031 -0.2631446 -0.16505021 0.01101214 -0.23504986
0.0077790553 -0.17261942 -0.14898446 -0.28748038 -0.026982112 0.023950668 -0.0042052884 -0.09283077
-0.2284999 -0.18893354 -0.247058 -0.17476298 -0.049686007 -0.10759629 -0.071521655 -0.0126889935
0.08861966 0.25545695 -0.13980025 0.20585713 0.04268082 -0.029289262 -0.06876615 -0.17201905
0.13590324 -0.089778125 0.091004014 0.0031717205 0.07786057 -0.15946668 0.011595759 0.032698795
-0.14621137 -0.15861195 0.01837874 0.07116781 -0.10438812 0.06793594 -0.051441364 -0.0016285673
-0.0455929 0.12741223 0.038284898 -0.103901975 -0.06863158 -0.038545907 -0.11593557 0.012913679
-0.09660727 0.1722749 -0.18589106 -0.05759558 -0.0422711 0.11796152 -0.14358705 -0.108369134
0.2812449 0.19664748 -0.09930107 0.022009658 0.0977146 -0.037984706 -0.078577265 -0.16412157
-0.050405785 -0.26532894 -0.18262355 -0.16257584 0.012212463 0.237785 -0.02969021 -0.060851138
-0.054425724 -0.1379441 0.04060619 0.19554491 0.055924065 0.12329666 -0.17378893 0.11495418
-0.032472957 -0.2541848 -0.13239191 -0.13289578 -0.18799925 -0.25812 -0.09904172 0.16529255
-0.082143724 -0.0914639 -0.09032465 -0.26443613 -0.00706942 -0.109660946 0.021285156 -0.13952918
-0.32167935 0.07005992 0.09259549 -0.086524636 0.07474595 -0.21780339 -0.1741424 0.13291708
0.11929012 0.10582206 -0.09802567 -0.33184585 -0.16807897 -0.31128594 -0.18798214 -0.22877567
0.01699536 0.07389953 0.04274397 -0.08077771 0.1330153 -0.01731708 0.10828734 -0.28933015
-0.046194736 -0.015224683 0.20221342 -0.0751574 -0.11755604 -0.09052837 -0.082747966 -0.42515415
-0.16118796 -0.20635419 -0.09365833 -0.2385192 0.05103659 -0.06485125 -0.29339322 -0.14749934
-0.29141852 -0.038211044 -0.20125309 0.026460927 -0.082624175 0.089161694 -0.08025316 -0.11679564

lstm.bias_hh_l0 f4 [256]
00000000: 16e8 043e 60cb b4bd aa86 5d3d 3147 8fbd
00000010: 351c f4bd 5e4d 19be d78a 30bd e53c 0b3e
00000020: 1e8d bc3b 286b db3d 071b 30be 1598 e8bd
00000030: 3e7e 10be 89c0 17bd b8b8 fd3d 36fa 44be
00000040: 6ec7 f8bc f6c9 aabd acfb 523d f67e e3bd
00000050: 7942 123d 569b 20be e4c7 56bd 617b d4bc
00000060: c0c5 d1bd cfe1 173e 69ba 76bd 4280 2abe
00000070: 5cc7 c6be a3cc 80be 23c9 89be c350 a9be
00000080: 442e 19be 164b 2b3e 5058 e7bd 3d8b 86bd
00000090: c412 5dbe ce3b 62bd 1327 8ebd 5813 5cbe
000000a0: 8efb 8f3d 8796 e5bd 1286 c43d 69f7 45be
000000b0: b48f e7bd 594d 403d f576 7cbd bf4f f7bd
000000c0: 2318 c8bd 9b91 89be 062a 4abd 7c17 89be
000000d0: 4800 803d 8e6e 40be 2c71 03bc 864d b43d
000000e0: 5a19 9fbe 9b2c 8bbe 21f6 57be 79fe e3bd
000000f0: dac7 8bbd 6910 0abe 3075 c03d 8638 3ebd
00000100: e263 62bd 46cf c4bd 036e 14be b8cc 2dbd
00000110: eb29 6cbe b61c 08bd 2248 cabd b4d4 e7bd
00000120: 60f6 1cbe 00f5 e5bc 9ee0 13be 9ece 4bbe
00000130: ee4b b0bc 2d5f d73d bf76 81bd 23f2 e7bc
00000140: 98bc 14be c4de 6ebd 08b5 cf3d 8299 5cbe
00000150: de34 e1bd 76d8 9fbd 87c8 0a3d 40f1 153e
00000160: a3e6 0ebe a782 e8bd ed0e a4be ee30 59be
00000170: 36cf 2fbe 6fc8 3dbe 6e0f 5cbd e821 97bd
00000180: 1969 72be c510 683d a409 04be b937 0ebe
00000190: 47b1 8e3d da23 80bd af68 5139 6646 30be
000001a0: eb01 03be 68dc 2abb 16c9 123d 1b6f f6bd
000001b0: b046 19be aa4f 873d 742c 40be 50d9 9abe
000001c0: a0bf ccba 496a 18be 7857 bfbd 72ad 88be
000001d0: b3a5 af3d d531 3abe 7463 debd 2ed3 343d
000001e0: e1e9 01be f02c 4bbe 94e1 d3bd a122 96be
000001f0: f617 24be 5852 39bd fad5 5d3d eb3d dabd
00000200: e7dd 2cbd 349a 8c3e 7b19 37bd ba34 063e
00000210: 8658 073e 1962 f7bd 328b 393d 53a7 96bd
00000220: 5b36 b93d 0ed8 02bd f3e7 fc3d 8814 273d
00000230: 4999 f7bc d24d 993d 5e94 04be cd0f 843d
00000240: 1524 7e3d 9100 d7ba 6486 1ebd b275 043e
00000250: fbca a3bd 243e 423e a39c 3cbe 7131 32bd
00000260: e702 e4bd b4e1 243e 7cdd bb3c 0edd 1bbd
00000270: e8cc e2bd adfe 873d 0839 273d e5b2 923c
00000280: 5005 d8bd f9da 733e 3f09 d5bc e0b8 bc3d
00000290: 2708 27bd 136c 38bd 8af0 0cbe c2ce a5bd
000002a0: ca11 e33d 4bc7 f5bc 456b 79bd 763d 3f3e
000002b0: 36cf d9bb 3b39 90bd 7996 b03d 5bce f0bd
000002c0: eee0 b73d bf70 3fbe 1b18 c4bd d5c6 4dbd
000002d0: 89ba 353c 8187 933d 2d4b 723d 781f 8dbe
000002e0: 7b81 a3bc 1b07 d2bd 2531 2ebd 903c 1d3e
000002f0: e3dd aa3c 6521 063d 9e48 d2bb 52fe 303e
00000300: 49c3 293d 99ff 45be 818d 8cbd 4377 40be
00000310: 8f71 a0bd 4748 7dbd a401 7ebe f345 58bc
00000320: 93da 8fbd 33b1 30bd b620 833c 1fad 87be
00000330: 02d9 3abe 84ae 70be c071 97bd f643 44be
00000340: ec42 7ebe 2320 1a3e 1203 ce3d 7478 29be
00000350: c389 72bd 4716 d4bd b3a1 7ebd c42e a33c
00000360: 6b95 893d 9680 723b 93b8 bbbd a553 10be
00000370: 3f4c 06be 2751 18be d10f 88be 273d c2be
00000380: c111 86bd a744 523d 25c0 28be 85b8 0fbe
00000390: 3428 15bc 8d39 97bb b770 d6bd aa55 70be
000003a0: 82f4 813d 65f4 a73d 7c9a cdbb ed87 7abd
000003b0: 6955 4abe 8fd4 c7bd efc3 42bd 50e4 8abe
000003c0: a987 53bd e235 babe 3c50 683b c4aa bbbe
000003d0: 52a6 b33d 1282 b2bd c62d 14be 857e 5abe
000003e0: a125 f7bd 4fc4 e2bd 05fe 16bd 7d0e 523d
000003f0: cbff 17bc 051e cfbd 6e6d d8bd aedf e1bd
0.12979159 -0.08827853 0.054083504 -0.069960006 -0.119194426 -0.1497092 -0.043101158 0.13597448
0.005754127 0.10713798 -0.1719781 -0.11357132 -0.14110658 -0.03704885 0.12388748 -0.19236073
-0.030368533 -0.08339302 0.051509544 -0.111082 0.035707925 -0.15684256 -0.052436724 -0.025937738
-0.10242796 0.14832233 -0.06023637 -0.16650489 -0.38823974 -0.25156125 -0.26911268 -0.3306943
-0.14959055 0.16727862 -0.11296141 -0.06569526 -0.2158919 -0.055232815 -0.069410466 -0.21491754
0.07030402 -0.112103514 0.095958844 -0.1933266 -0.11306706 0.046948764 -0.061636884 -0.12075757
-0.09770229 -0.268689 -0.049356483 -0.2677573 0.06250054 -0.18792173 -0.008022588 0.08803849
-0.3107403 -0.2718247 -0.21089984 -0.11132521 -0.06825228 -0.13482822 0.09397352 -0.046440624
-0.055271037 -0.09609847 -0.14495091 -0.042431563 -0.23062865 -0.033230506 -0.098770395 -0.11319867
-0.1532836 -0.028070927 -0.14441153 -0.19903037 -0.021520581 0.105162 -0.06321477 -0.028313702
-0.14525068 -0.058317915 0.10141951 -0.21542934 -0.10996412 -0.078049585 0.033882644 0.14642811
-0.13955168 -0.11353045 -0.32042637 -0.21210071 -0.17168888 -0.1853349 -0.053725652 -0.07379514
-0.23672904 0.056656618 -0.12894303 -0.13888444 0.06967407 -0.06256838 0.00019970791 -0.17214355
-0.127937 -0.0026071314 0.0358363 -0.120329104 -0.14968371 0.066069916 -0.18766958 -0.3024392
-0.0015621074 -0.14884295 -0.09342855 -0.26694828 0.085765265 -0.18183072 -0.10858813 0.04414671
-0.12686874 -0.19841361 -0.1034576 -0.29323295 -0.16024765 -0.045244545 0.054159142 -0.10656341
-0.04220381 0.27461398 -0.044702034 0.13106051 0.13217363 -0.120792575 0.045298763 -0.07356133
0.090435706 -0.031944327 0.12348928 0.040791065 -0.03022446 0.07485546 -0.12947223 0.06448326
0.06204613 -0.0016403367 -0.038702384 0.12935522 -0.079977 0.18969017 -0.18419127 -0.043504182
-0.11133366 0.16101724 0.02293276 -0.03805261 -0.11074239 0.066403724 0.040825874 0.01790757
-0.10547888 0.23814 -0.026005385 0.092149496 -0.04077926 -0.045024943 -0.13763633 -0.080960765
0.11087377 -0.030002257 -0.060893316 0.18675789 -0.006647016 -0.07042166 0.086224504 -0.11758109
0.08978449 -0.18695353 -0.0957491 -0.05023845 0.011091837 0.0720358 0.059153724 -0.2756307
-0.019959202 -0.102552615 -0.042527337 0.15355134 0.020857757 0.03274669 -0.006417348 0.17284516
0.041446004 -0.19335784 -0.06862927 -0.18795495 -0.078341596 -0.061836507 -0.24805313 -0.013200271
-0.070241116 -0.04313774 0.016006809 -0.26499268 -0.18246844 -0.23504072 -0.07394743 -0.1916655
-0.24830216 0.15051322 0.10059179 -0.16549855 -0.05921341 -0.103558116 -0.062165927 0.01991976
0.06717952 0.0037002913 -0.09166064 -0.14094408 -0.13115023 -0.14874707 -0.26574567 -0.3793728
-0.06546355 0.051335003 -0.16479547 -0.14035232 -0.009103823 -0.004615015 -0.104707174 -0.23470178
0.06345464 0.082009114 -0.0062745195 -0.061164785 -0.19759144 -0.09757339 -0.047550138 -0.27127314
-0.051643047 -0.36369234 0.0035448214 -0.3665372 0.087719575 -0.08716215 -0.14470586 -0.21337326
-0.12067724 -0.11072599 -0.036863346 0.05128335 -0.009277294 -0.10113148 -0.10567747 -0.11028992

lstm.weight_ih_l0_reverse f4 [256, 48]
00000000: 5abc 85bd 8cbf 013b 6fb7 4d3d 9f91 123e
00000010: 3c03 24be 1aa4 fcbc 9659 d6bd f1b3 743d
00000020: 18a2 92be 5e23 b5bd 9e1e 2bbc 48e4 65bd
00000030: b984 d63c ea39 75be 11d7 79be 4c87 3abe
00000040: ae9a 3b3e 164b 5fbe 7f45 bc3c 4fe5 8c3e
00000050: 0b21 5abd c06b 4b3d db05 543d 2644 2f3e
00000060: 124f 62be fd60 a0be 43b1 e9bd 4efc b83d
00000070: c7d9 c8bd 77ec 22bd 90e5 43be bfe2 a43d
00000080: d004 87be 3b42 3d3e f4a0 9ebd 083f c13c
00000090: a702 76be d7fd fe3e 1119 29be 4f62 bbbe
000000a0: d1fa 253e 4cdc 46be 872b 32be a008 303d
000000b0: a0d9 ae3c 7e32 85be 81ad 52be 5475 883c
000000c0: 342e 32bd 0ee8 96be fb2c db3e 1d01 36be
000000d0: 4f48 623e ad53 fa3e d2c6 2e3e 18d1 683e
000000e0: 998d a83e d0a6 81bd 7057 763e 85ee 4dbe
000000f0: 3316 53be 732f 223d 2316 09be e66a 713e
00000100: 7698 cdbd 9351 8b3d 5403 f8bd 9a62 25be
00000110: 9a65 a03e 96b2 4dbe 05ed 3c3d 410d a83c
00000120: c588 c03d c0e9 3a3d ee60 843d 8b92 363e
00000130: 5341 803e fe92 09bc 3ad6 70be 2ec6 79bd
00000140: 8b69 53bc 573e 14be e8b5 28bd fe24 b8bd
00000150: 04a7 9c3e 6395 6dbd 0cea c83d ccd2 d8ba
00000160: 614a ee3d adaf 94be 4c93 d53c dc17 b03d
00000170: 4027 d0bd 597d b33e c05a e03e 316f 263e
00000180: 7c12 d23e 0d3e 003f 96ac 21bd 4427 b23e
00000190: f368 3abc fe5a 2ebe 38db 34be bc8b 05be
000001a0: 73ab 6fbe 66ff 63bd 2a6a c33d 3240 c33d
000001b0: eb5d 843e 30af debb 6aa1 e2bc 5c9f 543d
000001c0: fcb2 023e e6fd ba3d 954d 28bd d812 d03d
000001d0: 7141 073e 595b 243e 8269 523e 4d98 cabd
000001e0: be62 853d 5889 423e 7f0f 42bd 74fe 513e
000001f0: 3394 9fbe 99a2 b2bd 2ed8 033e afdf 4ebd
00000200: 41e6 f5bc d95e ecbd 4488 473d ceb9 a73d
00000210: 00a4 87bd 1dbc 35be 59d3 39be 9b1f 513d
00000220: 2fb1 de3d 036d c23d 9139 36be b424 51bd
00000230: 3022 45bc c91b 053e 10b1 43bc 16b9 93bc
00000240: 2bd9 423d fb3c 5ebe 2fae 363d cfe9 51bc
00000250: b269 85bc 694f 233c 7844 dd3d 5227 d5bd
00000260: 4aa7 abbe 1a37 5e3c 075f da3d 9c01 a33e
00000270: ee11 42bd e5b5 033d 398d a93d 773d b8be
00000280: a575 023e 4872 853d a8b9 ec3c 56b1 943e
00000290: e574 91bd 840a e5bd 86a3 e7bc 9fe9 5bbe
000002a0: 54d0 5e3e c9b9 173e 7d88 f13c 3c32 713e
000002b0: 51e2 0dbd 9387 713d 58fd 06be b38b 5a3d
000002c0: beec b73b d81d b63b 4c53 fb3d f80e 4f3d
000002d0: aa3b 37bd e271 bb3d 30cb 1a3d 0c38 2e3c
000002e0: 4ffb b5bd 3fb0 7cbe bb29 58bd 9a80 ecbd
000002f0: 0c08 bbbd dcea 833d 39ba fbbd 47f4 403e
00000300: 7f5b 163e 78a9 13bd f373 ecbd 8ae8 16be
00000310: b15e 213c b38d 4dbe 593b 933e ffc3 89be
00000320: 993b af3c 525b 163d ffe6 873e 8003 6c3e
00000330: 7bf3 4fbe ef3a e8bc e126 723e 7843 54be
00000340: b352 51bc 1b5d 1d3e 060f 7a3b 9e78 953e
00000350: b7d9 79be c499 90be 118e f4bc af9a 80be
00000360: f06e 1cbd 957c 3cbc 3e2b 01bd 4fdb f83d
00000370: 8532 81be 5731 57be afac a23d 262a 44bd
00000380: ef35 393d af43 5c3d 5094 a73c 4668 c1bd
00000390: 026f a0bd f598 613c f2f4 debe 74d8 9d3e
000003a0: 8553 e53d f199 bdbd a7e4 47be 0cd1 6b3d
000003b0: 7498 283d b639 46be b61c 6d3d 8ee1 9e3d
000003c0: 8973 0a3e 6a3c f03e 3c89 6f3e 8531 d33d
000003d0: 0e8c 95bd 12b8 5fbd c671 8b3e dfc7 9cbc
000003e0: 9bf8 123c 266b f63d 8292 85bd dd93 c03c
000003f0: 42ee 833d 9522 a73d 44e3 ff3d 4cc6 943e
-0.06530066 0.0019798009 0.050223764 0.14313363 -0.16016859 -0.030839968 -0.10466306 0.059741918
-0.28639293 -0.088446364 -0.010444311 -0.05612591 0.026186334 -0.23947874 -0.24398448 -0.18215674
0.18320724 -0.21805987 0.022982357 0.275187 -0.05325417 0.049663305 0.051763397 0.1711584
-0.22100475 -0.31323996 -0.11410763 0.09032498 -0.09807163 -0.03977629 -0.1913054 0.08051061
-0.2637086 0.18482296 -0.07745543 0.023589626 -0.2402445 0.4980304 -0.16513468 -0.3659844
0.1620896 -0.19419974 -0.17399417 0.042976975 0.021344006 -0.26015085 -0.20573999 0.016657509
-0.043501094 -0.2947392 0.42807755 -0.17773862 0.22097896 0.48891965 0.17068031 0.22736013
0.3292053 -0.06330645 0.24056792 -0.20110519 -0.20613937 0.039596032 -0.1338735 0.23575935
-0.10038845 0.068026684 -0.1211001 -0.16150895 0.31327516 -0.20087656 0.046124477 0.020514132
0.09401087 0.045633078 0.064638 0.17829339 0.25049838 -0.008396862 -0.23519221 -0.060980015
-0.012903581 -0.14476906 -0.041189104 -0.08991431 0.30596173 -0.058003794 0.09810266 -0.0016542315
0.116352804 -0.2904028 0.026071213 0.08598301 -0.10163736 0.3505657 0.43819237 0.16253354
0.41029727 0.5009468 -0.03947123 0.34795582 -0.011377561 -0.17026898 -0.1766175 -0.13041586
-0.23405246 -0.05566349 0.095417336 0.09533729 0.25852904 -0.0067957863 -0.027664859 0.05190979
0.1276359 0.091304585 -0.041089613 0.10159844 0.13208558 0.16050471 0.2054806 -0.0989233
0.06512974 0.18997705 -0.04737806 0.20507222 -0.31167755 -0.08722419 0.12875435 -0.05050629
-0.03001702 -0.11541528 0.048713937 0.08189736 -0.066230774 -0.17747541 -0.18147029 0.051055532
0.10873639 0.094934486 -0.17795397 -0.051060393 -0.012032077 0.1299888 -0.01194407 -0.018032592
0.04757039 -0.2170295 0.04459971 -0.012812092 -0.016285751 0.009967663 0.10804075 -0.104078904
-0.3352607 0.013562942 0.10662656 0.31837165 -0.04738038 0.03215589 0.08278889 -0.35984394
0.1274019 0.06515938 0.028897122 0.29041547 -0.07102374 -0.11183646 -0.028276216 -0.21475838
0.21759158 0.14816965 0.029484028 0.23554319 -0.03463966 0.058967184 -0.1318258 0.053355884
0.0056129387 0.005557757 0.12271747 0.050551385 -0.044734634 0.09152581 0.03779143 0.01063348
-0.08885824 -0.24676608 -0.052774172 -0.11547966 -0.09132394 0.0644128 -0.122913785 0.18843184
0.1468334 -0.03605029 -0.11545553 -0.14737144 0.009849236 -0.20073585 0.28756216 -0.26907346
0.021390723 0.036708184 0.26543424 0.2304821 -0.20307724 -0.028348414 0.23647644 -0.20728862
-0.012776065 0.15367548 0.0038155927 0.29193586 -0.24399458 -0.28242314 -0.029852899 -0.25118014
-0.038191736 -0.011504312 -0.03153538 0.12151205 -0.25233856 -0.21014915 0.07943093 -0.04789176
0.04521745 0.053775486 0.020456463 -0.09443717 -0.07833673 0.013769378 -0.43546253 0.30829203
0.11197571 -0.092578776 -0.19520818 0.05757241 0.041161016 -0.19357952 0.05788871 0.07757865
0.13520636 0.46921092 0.23392195 0.103121795 -0.07302104 -0.054618903 0.2723524 -0.019138275
0.008970405 0.12032156 -0.06522085 0.023508007 0.064419284 0.08160893 0.12494519 0.29057539

lstm.weight_hh_l0_reverse f4 [256, 64]
00000000: 015a b73e c446 6a3e f445 a43e 4187 39bc
00000010: a146 963a 9d22 52be e8b0 24be 00ab aabd
00000020: 4fb9 843d 9038 9cbe 8acd 08be 5226 b23c
00000030: f3c6 c03c f7d3 173c 6633 d03d 2af0 bdbd
00000040: 739d adbd 881a 4fbe 7820 823e 5a47 1abe
00000050: e21f dfbd da80 083e 92c8 6a3d 0eda cabd
00000060: 1c25 223e fe21 c4bd ce8b be3d ab8d f43d
00000070: ba31 d43d 266b 9fbc 8de4 e93e 861a 583e
00000080: bbaf 41be b633 fc3d f43f 4fbd d403 e93c
00000090: f126 593e 9e54 443d 9ec8 4dbe b1ab 41bd
000000a0: 699a 173e 4044 03bd a43a 963e 5470 813e
000000b0: 112d 903c b134 b4bc c062 25be e931 cabd
000000c0: 9c3a 543e 52f6 b73d 126d f8bc 48c1 13bd
000000d0: 031d b0bd e2ee aabd 380f 363e 9d1c 12bd
000000e0: 5e48 e53d 7509 3bbe d82f b0bd ddfb e73d
000000f0: e66b 05bd b1c3 f93d df85 e7bd eefc 3dbe
00000100: b054 913d 284d fe3d b233 b43c 6120 d13d
00000110: 7abd 21bd 689a 2b3c 0f83 a53e d3bd 413d
00000120: a301 fabc 4089 3ebe bfda 39be a599 b83e
00000130: a964 fabe 6d90 933d d6ef 8e3d 17b7 b6be
00000140: cc3f 423e 9d7e 953e ba94 ea3c e10f a4bc
00000150: c18f 32bd b107 89bd 4c3f 11bd d622 ff3d
00000160: 535a 00be 44cc 9b3e 5c0c 7bbe a4c0 3dbc
00000170: 6fcc b3bb d5b4 69bd 68e9 0a3e 08ff a53e
00000180: 406d 88be 19eb 71bd 4385 fe3d 286d d23b
00000190: ab9d fbbd 35f0 103e cbad 9dbe 4c3a 4a3d
000001a0: ad55 1c3e e4d0 f83c 24de ba3c be65 8b3c
000001b0: 328f 433e a585 26be ae1a 22be c64c 0c3e
000001c0: c2a5 6ebc e55a 49be dc84 45be 3540 423d
000001d0: 1428 f33d eab7 de3c fce5 2c3e 3e2a f73c
000001e0: 67e7 0cbe f5cf 943d fb93 a63e f7c0 d73d
000001f0: 2f03 c63d b861 583c 695b ad3d 8a2e be3d
00000200: 8cce f73b 1ded 98bd 45b3 d23d 97d4 fcbc
00000210: 708f 38be fbea 183d 1af7 063e a05c 7c3e
00000220: fb24 9abd 9405 e43d 69bd 1cbe 57bf dd3c
00000230: a6c6 0a3d be88 05be 320e 2e3e f995 8dbe
00000240: b79d a63c 1c48 db3c bab4 6abd 8fa9 9cbd
00000250: f2d4 03bc 950e bf3e 0c15 153e 3b51 7cbd
00000260: 2083 a53d 7cbb d73c 8c6f aabe ffc2 1d3c
00000270: 5669 b8bd d12a 423e d784 cebb 882e 743e
00000280: bacd 01be 807c 81bd 6539 cabd 696a 1dbe
00000290: 2209 fb3c 6d5d e03d 4ca4 fbbe 2fe6 293e
000002a0: 7795 e8bd 8fbd 4dbd 5cd3 213e 04e9 ef3d
000002b0: e6b0 5cbe be3a 6fbe 3dcd 3fbd 616c c53c
000002c0: 9592 a43b 8f8f 8abd 4708 bebe 0085 c83e
000002d0: 2581 53be d147 9b3e 463a 393e 929f dd3b
000002e0: f51f b5be f168 60bd acbf c53c 273a bfbd
000002f0: 8829 8c3e 9485 fdbd 23ac 50be b660 c7bc
00000300: e478 ecbc e7c5 55be c319 d1bd eda5 ac3d
00000310: dc4e 933d ea33 bfbd f261 71be 496b 463d
00000320: ff6c c63b e683 be3e 03b6 a1bd 0ae6 b93d
00000330: 955c 3e3e 4381 f23c ea81 82be f349 4abd
00000340: 90c8 acbe c811 143e 54e8 51be 5c4d d6bd
00000350: f90c 303e 945d 8cbd 3a4c 413e dbed f53d
00000360: ffa1 003e 3670 23be 17e1 3cbe 3cde babe
00000370: 0304 913e 2501 98bd 7742 b6be 4dfd d63d
00000380: 4269 80be e34f cd3c 9412 743e 544a 953e
00000390: 4d3a ec3d 7f87 b23e de18 ffbd e5db 4cbc
000003a0: 5665 f43d 7351 933d 5f09 01bd 368b 733d
000003b0: 48d4 98be a46f 16bf 8839 3dbd 7d95 38be
000003c0: b0b2 4e3e 18c2 6cbe ddd7 b2bc bc37 ed3d
000003d0: 4c3d d23c bfb4 24be 9ed7 e7be 9915 c73d
000003e0: 6e3a 3dbd 1e21 33be d626 c23d 28ce 083c
000003f0: f749 9abe f0ea 883d 7a30 9fbc a5f6 98bd
0.35810855 0.22878557 0.3208462 -0.011323751 0.0011465141 -0.20521016 -0.1608311 -0.08333397
0.06480657 -0.30511904 -0.13359657 0.021746788 0.023532366 0.009266845 0.101660535 -0.09274323
-0.08477297 -0.20224965 0.25415397 -0.15066281 -0.10894753 0.13330403 0.057320185 -0.09904872
0.15834469 -0.09576796 0.093040094 0.119410835 0.10361047 -0.019460272 0.45682183 0.21103868
-0.18914692 0.123145506 -0.0505981 0.028444208 0.21206261 0.04793226 -0.2009606 -0.04728288
0.14804997 -0.03204751 0.29341614 0.25281012 0.017599614 -0.021997781 -0.16150951 -0.09872801
0.20725483 0.08982529 -0.030325446 -0.036073 -0.085992835 -0.083463445 0.17779243 -0.03567182
0.111954436 -0.18265326 -0.086028755 0.11327336 -0.032573603 0.12195528 -0.11304831 -0.18553516
0.07096231 0.1241706 0.021997306 0.10211254 -0.03948734 0.010473825 0.32326552 0.04730017
-0.030518359 -0.18607044 -0.18149851 0.3605472 -0.48904923 0.072052814 0.06979339 -0.3568656
0.18969649 0.2919816 0.028635371 -0.020027103 -0.043594126 -0.0669092 -0.035460755 0.12457816
-0.12534456 0.3042928 -0.24516433 -0.011581574 -0.005487017 -0.05705722 0.135656 0.32421136
-0.2664585 -0.059062097 0.124277614 0.006421704 -0.12285932 0.14154132 -0.30796656 0.049372002
0.15267058 0.030373044 0.022811003 0.017016288 0.19097593 -0.16261919 -0.1583049 0.13701162
-0.014565887 -0.1966358 -0.19288963 0.047424514 0.11872879 0.027187306 0.16884607 0.03017151
-0.13760148 0.07266227 0.32534775 0.10534852 0.09668576 0.013206892 0.08464701 0.0928622
0.007562464 -0.07467101 0.10288099 -0.03086309 -0.18023467 0.03733347 0.131802 0.24644709
-0.07526585 0.111338764 -0.15306629 0.027068777 0.033880852 -0.13040444 0.16997603 -0.27653483
0.020338876 0.026767783 -0.05730126 -0.07649528 -0.008046376 0.37315813 0.1455881 -0.061600905
0.08081651 0.026334517 -0.3328823 0.00962901 -0.09004466 0.18961646 -0.006302457 0.23845875
-0.12676135 -0.063225746 -0.098742284 -0.15372624 0.030644003 0.109553196 -0.49148786 0.16591714
-0.11356633 -0.050229605 0.15803283 0.11714366 -0.21551856 -0.23362252 -0.04682659 0.02409953
0.0050223568 -0.06765663 -0.3711569 0.3916397 -0.20654733 0.3032823 0.18088636 0.006763407
-0.35375944 -0.05478758 0.024139248 -0.093372636 0.27375436 -0.12378994 -0.20378165 -0.024338108
-0.028866239 -0.20876275 -0.10209992 0.08430085 0.071927756 -0.09336074 -0.2357252 0.04844216
0.006055474 0.37210006 -0.07896044 0.090770796 0.18590005 0.029602652 -0.25489742 -0.04938693
-0.33746767 0.14459908 -0.20498782 -0.10463974 0.17192449 -0.06853786 0.18876734 0.12008258
0.12561797 -0.15960774 -0.1844524 -0.36497676 0.28323373 -0.07422093 -0.35597584 0.10497532
-0.25080305 0.025062507 0.23835212 0.2915827 0.115345575 0.34869 -0.12455915 -0.012503599
0.11933391 0.071932696 -0.031503078 0.059458934 -0.29849458 -0.587641 -0.046197444 -0.18025775
0.20185351 -0.23120916 -0.021831447 0.11582896 0.025663994 -0.16084574 -0.4528169 0.09720916
-0.0461983 -0.17493102 0.094800636 0.008349933 -0.30134556 0.06685436 -0.019432295 -0.07468919

lstm.bias_ih_l0_reverse f4 [256]
00000000: 75a9 bfbd 676b 1fbe 9686 b7be a26a 90be
00000010: ca59 52be 6562 15bc 60c4 e6bc d4a3 69bb
00000020: 7d24 533e 0c76 013b 79b3 f63d 2984 303e
00000030: f82f 0abe e77c 1abe 27a6 1ebd 5a31 443b
00000040: 763d fdbd 3cc0 00be 2be6 18bd ac33 2bbe
00000050: 2fdb 37be ddc4 53bd c1de bb3d e501 20be
00000060: 8361 b7be 749b c8be b219 efbb 35fc 0bbe
00000070: 5047 563d f08d c33d d54d 01be 7257 ecbd
00000080: 9341 9abe ddf0 ffbd 1fd4 3fbc c29e 233d
00000090: 5ab7 c7bd a164 dd3c 3749 ae3c 51a5 7c3d
000000a0: 8944 f9bd 9ce4 09be d001 08be 4336 683c
000000b0: 023c 003d cde9 21be 6c42 47bc 49ce 923c
000000c0: 5b77 8bbd 67f4 88bc 4d18 54be 1e37 853d
000000d0: d1fc 53be f92e 59bd 76fe be3c 8aaa 70be
000000e0: 0417 aebe 8841 78be 68c3 0fbd 9c78 4dbd
000000f0: 49c0 50bd 7d0f 753c 7ebe 94bd 6335 503d
00000100: a586 17be 9d5d d4bd 2f25 afbe 2b8b c4be
00000110: 9409 d6bd 770b c1bd 6578 d4ba 9ece 2abe
00000120: de76 f7bc 63d9 b53c 014f 8c3c 0f98 f43c
00000130: 1404 63be 427d 953c 62ba 88bc 3a38 dc3c
00000140: 96eb 95be 555f 91be 068c c8bd 7a1f dabd
00000150: f1db 6abe f2d3 2ebe e6c4 42bd 0eee 26be
00000160: e8aa 84be 3f74 25be e793 52bd abd5 7a3d
00000170: 3066 22be 9b06 0d3e 15a5 d7bd 3bc1 36bd
00000180: c06f babe 537d 54be 05e9 a33d aed9 35bb
00000190: f12c 5bbe ef54 bfbc 44b7 0abe cfd2 f73d
000001a0: f965 6f3d 659d 85be f8be 10be 3ead 4bbe
000001b0: 0dbf 13be e70d c3bd 9001 20be f697 d6bd
000001c0: 36ae ffbd 9f33 39be fe8e 55bd 89cd c3bd
000001d0: 0e51 0abe d2e9 90bd d00f 2d3e 45de debd
000001e0: c77b 5abe 245a 4bbe 2328 33be 1d09 483d
000001f0: 9c66 bfbd 69e9 8e3d e663 92be 286c 86bd
00000200: 57b9 b7bd de77 19be d4d8 dabd 53a1 423c
00000210: 17cb 2dbd 5006 0d3d 1691 84bd 0606 eabd
00000220: d986 bfbd 3c06 77bc 2c2f 993e 3988 85be
00000230: 72de 343e 8d40 12be e314 bb3d 7b96 c2bc
00000240: 8456 e83c 9815 a4bd 9aee 1a3e b963 6a3c
00000250: 790c cf3d 49e9 04be 72ec eebd 2d25 523e
00000260: 2e87 e83d 9306 863d efad 353d 22fb 613d
00000270: 20a0 a83d 2cd1 03bc 1a99 daba c665 33be
00000280: 2613 383d 1c8a bb3c 66a7 a4bd 309f fabc
00000290: c07a 3abd b2dd cb3c 0c9a 953d 5f1d 4e3d
000002a0: 6ba7 de3d 501e a2bd 09c2 dabd 83c7 323d
000002b0: 6dd9 39bd b572 0dbd b4cf 05be 87d8 0abd
000002c0: db03 9abd 8821 b3bd a484 3c3e a317 003a
000002d0: 6263 4c3d 1a68 c8bb b08e 89bc 8fc2 0c3e
000002e0: 32ba 033e 0eab 033e 022d 8cbb a6d4 193e
000002f0: 8f42 e2bd b624 e9bd 0442 06be 571f 093d
00000300: 8cc9 27be 0882 31be c6f3 9dbe 67e4 5fbe
00000310: f2f7 13bc 6f7e b7bb 28f3 49be f3f5 37be
00000320: 388e 04be 5018 de3d ebe4 28bc 9e7a 433e
00000330: a91f 27be f41a 28bd 8da2 e9bd 33a0 81bd
00000340: a24f 69bd 8909 cd3d 8d36 57be abd1 64bd
00000350: 13bb a2be 6030 59be 650c 19bd b6b2 3ebe
00000360: 28d1 00be f844 c3be 6ab9 393e d755 98bc
00000370: c61f 13be 0188 f1b8 9adb 14bc 93f6 9e3d
00000380: da45 40be ffda 4bbd df55 05bd 54cf 9cbd
00000390: 0def 29be db87 44be 392f aebd affa 82bd
000003a0: 79d4 843d 7bb7 05bd 1e62 15be 0589 04be
000003b0: c0b9 a9bc e5f4 f6bd 88ea 5b3d e697 a73b
000003c0: 8501 c5bd afad 303d 0c93 abbc 8f0a 94bd
000003d0: 0fe0 15be 4e24 dabb 7b54 453d ea7f ed3c
000003e0: 1b48 73be 04a6 f4bd 74fc 903d 8679 c5bc
000003f0: 0fb8 84be 4c3a 20be 3f63 3dbd a400 483d
-0.09358493 -0.15568314 -0.35844868 -0.28206354 -0.20542064 -0.009117697 -0.02816981 -0.0035650628
0.20619388 0.00197542 0.120459504 0.17237915 -0.13494861 -0.15086709 -0.038732674 0.0029936642
-0.12365238 -0.12573332 -0.03732888 -0.1671893 -0.17954706 -0.051701415 0.09173346 -0.15625723
-0.35816583 -0.391811 -0.0072967643 -0.13670428 0.052314103 0.09548557 -0.12627347 -0.11540116
-0.30128154 -0.12497113 -0.011708288 0.039946325 -0.097517684 0.027025523 0.021275146 0.061681096
-0.12171275 -0.13466114 -0.13281941 0.014173093 0.031307228 -0.15811844 -0.012161832 0.01792063
-0.068098746 -0.016718103 -0.20712395 0.065046534 -0.2070191 -0.053023312 0.023314696 -0.23502555
-0.34001935 -0.24243748 -0.035098463 -0.05016385 -0.050964627 0.014957306 -0.07262896 0.050832164
-0.14797457 -0.10369418 -0.34208056 -0.38387427 -0.10451046 -0.09426015 -0.0016210197 -0.1668038
-0.030208047 0.022198385 0.017127516 0.029857663 -0.22169524 0.018248204 -0.016690437 0.02688228
-0.292813 -0.28393045 -0.09792332 -0.10650535 -0.22935463 -0.17073038 -0.04755106 -0.16301748
-0.2591164 -0.16157626 -0.051410582 0.061238926 -0.15859294 0.13772051 -0.10529534 -0.044617873
-0.36413383 -0.20750932 0.08003429 -0.0027748155 -0.21403863 -0.02335593 -0.13546473 0.121007554
0.058446858 -0.26096645 -0.14135349 -0.19890305 -0.14428349 -0.09524136 -0.15625596 -0.10478203
-0.124844 -0.18086098 -0.05213832 -0.09560687 -0.13507482 -0.07075848 0.16900563 -0.10882238
-0.2133628 -0.19858605 -0.1749578 0.048836816 -0.09345743 0.06978113 -0.2859184 -0.06563598
-0.08970898 -0.14987132 -0.10685888 0.011879283 -0.04243001 0.03442985 -0.064729854 -0.1142693
-0.09351892 -0.01507717 0.29918802 -0.26080492 0.17662981 -0.14282437 0.09134843 -0.023753395
0.028361566 -0.08011931 0.15130082 0.014306002 0.10109801 -0.12979616 -0.11666192 0.20521994
0.113539085 0.06544223 0.04435533 0.05517114 0.082336664 -0.008045476 -0.0016677708 -0.17519292
0.044940136 0.022893004 -0.08039741 -0.030593485 -0.04552722 0.024885986 0.07304773 0.05032098
0.10871776 -0.07915938 -0.106815405 0.0436473 -0.04537337 -0.03453322 -0.13067514 -0.033897903
-0.075202666 -0.0874663 0.18409973 0.00048863346 0.049899466 -0.0061159255 -0.016791672 0.13746093
0.12863997 0.12858221 -0.0042778263 0.15022525 -0.11047851 -0.11383955 -0.1311112 0.033477154
-0.16385478 -0.17334759 -0.30850047 -0.21864472 -0.009031283 -0.005599789 -0.19721663 -0.17964916
-0.12944877 0.10844481 -0.010308485 0.19089743 -0.16320671 -0.04104133 -0.11407957 -0.06329384
-0.05696071 0.10011584 -0.21016903 -0.055864017 -0.3178335 -0.2120986 -0.037365336 -0.1862286
-0.12579787 -0.38138556 0.18137136 -0.01859562 -0.1436759 -0.00011517108 -0.00908556 0.07761874
-0.18776646 -0.049769398 -0.032552596 -0.07656732 -0.16595097 -0.1919245 -0.08505101 -0.0639547
0.064858384 -0.032645684 -0.1458821 -0.12942894 -0.020718455 -0.12058429 0.053690463 0.0051145433
-0.096194305 0.043134388 -0.02094414 -0.072285764 -0.14636253 -0.00665716 0.04817627 0.028991658
-0.23757975 -0.119457275 0.070794016 -0.024105798 -0.25921676 -0.15647238 -0.046237227 0.048828736

lstm.bias_hh_l0_reverse f4 [256]
00000000: d656 e8bd bb01 28bd 05ae 9ebe 29b0 03be
00000010: 4db0 57be 51a6 d3bb a086 3ebe be1b bbbc
00000020: a3d3 523e de42 1cbe 2140 07bc ef45 4d3e
00000030: faea 76be e748 24be 1eb1 77bd bae4 34bb
00000040: af33 27be c343 90be 3630 42be 6d8b 21be
00000050: 14c4 c3be c03a 9f3d 4cb1 9d3b b609 bcbe
00000060: be24 ddbe 2283 a6be e130 fa3d b66c b4bd
00000070: d28d f9bd 84ea 443e e82e 14be ec8d 813d
00000080: ce2e 8cbe 2ffe 97be b13b 303e a0aa a83d
00000090: fe50 33be ccd1 b93c 50e5 08be ea5e 27bd
000000a0: d6b6 163d 9b18 183d 1ea1 27be 813c 523a
000000b0: e83f 493b 188c 99be dd12 68bd ae52 8abd
000000c0: 12f3 dcbb cf79 cfbd 9299 6abc 1446 46bd
000000d0: 7978 e9bd 3a7b f93c 6356 ad3d bf54 69be
000000e0: dc4e 44be ca23 afbe 4064 563d 4006 233d
000000f0: 9053 54bc 1a25 36bd 8235 dfbd 2f65 3fbd
00000100: 3773 59be de0b a1b9 50cd 9cbe 9bb5 26be
00000110: 6ff0 14be eb38 ba3b f2b8 fc3b 6e87 1fbe
00000120: 11b3 3ebb 5a7d d3bd 10b5 a43d d6ab 13be
00000130: 6d7e 4bbe f8fd 2abe f6a1 e9bd 72e3 84ba
00000140: 7c44 3dbe bf0c 74be 1219 65bd eace 4b3a
00000150: 411f 9bbe 7d9d 5abe 7f05 703b 2d88 8ebe
00000160: 2aec 9ebe 7165 84be 7a17 fbbc 9113 93bd
00000170: 8999 6cbe 6a1a b1bc 28cf 04be f73c 79bd
00000180: bad4 babe edcc 7ebe 0308 3fbd b509 85bd
00000190: 9932 1dbe 3b45 583d c58e a0bd 37d3 b33d
000001a0: ee45 72bd 4a3d 68bd d337 5ebd d628 e43c
000001b0: 6826 55be 662a d9bd 5e9b 0c3c 7cdd fabc
000001c0: 1051 39be 4ecd ebbc 922b 43be a467 64be
000001d0: 6c6d 013d 3a45 8a3a 5c99 b83d 4779 0abe
000001e0: 560d f9bd 2d92 3fbd a971 423d 8883 a73c
000001f0: 1ce1 95be 270d 1c3e cf92 5fbe 15f1 0ebe
00000200: 4cfc 0ebe 0aa8 823c b32d 32be 14b7 043c
00000210: 4f2a 723c fef8 b83d c4f0 aa3d 229f bcbd
00000220: 0576 54be dcd4 0dbe e6e9 393e c987 c2bd
00000230: 92a3 e03d 6ffa b9bd e7ef 013e 72af 5a3c
00000240: 6bcb 513e a748 41be e152 ca3d a32e 583c
00000250: fe61 4dbd 0043 1cbe 070c c4bd efdb 9b3d
00000260: 3ad4 443d cb94 b53c b366 ae3d 8f03 1bbe
00000270: 55d5 193d 7439 373d 2839 fe3d e93d 06bd
00000280: 7beb 5c3e 892e 1cbd abbe 12bc 7259 85bd
00000290: 7c52 913a eb38 c8bc c959 f63d ec87 533d
000002a0: 9208 bb3c 2329 6fbe 387c 0abe 2a5a 0ebe
000002b0: 91e7 aebd 354b b63d 41a0 95be 2509 aabc
000002c0: de07 98bd bf32 743d f05d f93d dc8d 35be
000002d0: 0137 f53d 7b93 823d 3270 cd3d bcdb 343e
000002e0: 0950 4a3e 9df6 f73d b407 a03d 568e 4cbd
000002f0: 06bb 4ebe 2f99 c63b cae7 493d 9e2b 0bbe
00000300: 89e0 68be 0b5d 17be 760d 65be f1d0 51be
00000310: 31b6 2d3d 4036 50be 53e4 7cbe 721e 03be
00000320: 9f7c 36bd 2358 8cbc 667a c23d 1beb db3d
00000330: df0b 5dbe 9e1b 16be def5 38be 5437 c43b
00000340: cd77 55bd 7e5f eeb9 35fd 74be 2692 26be
00000350: c4ab c2be ab53 2abd a19d 43be a8c9 86bd
00000360: 9da7 43be 72d2 5cbe 7cbc 2f3e 0e84 35be
00000370: b818 83be b448 763d e74d d3bd 6046 0c3e
00000380: 83c0 85be 049b fdbd a8c0 973a 073e 0bbe
00000390: 045d fdbd d78e 30bd 937b b03d 6492 02bd
000003a0: 5b98 8b3d c0de ffbc a6e4 debd 10ef 5fbc
000003b0: 383b 09be 392d b7bd a04c 13be 2ddb 21bd
000003c0: 4048 2fbe c5d5 edbb 125b 2d3a c155 86bd
000003d0: ff42 87be dc74 b13d 1ccb 213e d7db e1bb
000003e0: 691d dabd e482 9fbc 234f 48bd aec0 46bc
000003f0: 338d 27be 580c 3cbe 8fde 92bd 9400 d9bd
-0.11344688 -0.041017275 -0.3099214 -0.12860169 -0.21063347 -0.0064590354 -0.18606043 -0.022840377
0.20588546 -0.15259883 -0.008255036 0.20046209 -0.24113074 -0.16043435 -0.060471646 -0.0027602152
-0.1632831 -0.28176698 -0.18963704 -0.15775843 -0.38235533 0.077748775 0.004812395 -0.3672616
-0.43192095 -0.3252192 0.12216354 -0.088097975 -0.12185253 0.19230086 -0.14471018 0.063258976
-0.2737946 -0.29686114 0.1721027 0.08235669 -0.17511365 0.022683047 -0.13368726 -0.040862
0.03679546 0.03713284 -0.16370055 0.000801988 0.0030708257 -0.29989696 -0.056658614 -0.06754051
-0.0067428434 -0.10130655 -0.014318841 -0.048406675 -0.113999315 0.030454267 0.084637426 -0.22786234
-0.19170707 -0.34206992 0.0523417 0.039800882 -0.012959376 -0.044468977 -0.10898878 -0.046727356
-0.21235357 -0.00030717155 -0.3062539 -0.16280214 -0.14544843 0.0056830547 0.007712477 -0.15579006
-0.002909843 -0.10326643 0.080423474 -0.14421019 -0.19872446 -0.16698444 -0.11407845 -0.0010138585
-0.18483156 -0.23832987 -0.055932112 0.0007774668 -0.30297282 -0.2134914 0.003662437 -0.2783827
-0.31039554 -0.25858644 -0.030650843 -0.07181466 -0.23105444 -0.02161904 -0.12969649 -0.060849156
-0.36490422 -0.2488286 -0.0466385 -0.06495992 -0.15351333 0.0528004 -0.07839731 0.087805204
-0.05914872 -0.056699075 -0.054252457 0.027851503 -0.20815432 -0.1060379 0.008581964 -0.03062319
-0.18097329 -0.02878442 -0.1905959 -0.22305161 0.031598493 0.0010549196 0.09013626 -0.13522826
-0.12160747 -0.046770263 0.047471676 0.020448461 -0.29273307 0.15239392 -0.21833347 -0.13959153
-0.13963431 0.015949268 -0.17400245 0.00810029 0.014780595 0.090318665 0.08346704 -0.0921004
-0.20748146 -0.1385073 0.18155631 -0.09498555 0.109686986 -0.090809695 0.12689172 0.0133474935
0.20487754 -0.18875371 0.09879089 0.013194713 -0.05014228 -0.15259933 -0.095726065 0.076103084
0.048053958 0.022165677 0.08515682 -0.15138076 0.037556965 0.044732526 0.124132454 -0.032773886
0.21574204 -0.038130317 -0.008956592 -0.06511201 0.0011087204 -0.024441203 0.12028844 0.051643297
0.022831235 -0.23355536 -0.13523948 -0.13901582 -0.085402615 0.08901063 -0.29223827 -0.020756314
-0.074233755 0.059618708 0.1217612 -0.17729896 0.11973382 0.06375786 0.10031165 0.17661947
0.19757093 0.121075846 0.07813969 -0.04994043 -0.20188531 0.0060607414 0.049293317 -0.13590857
-0.22741903 -0.14781587 -0.22368416 -0.20489861 0.04241008 -0.20333195 -0.24696474 -0.12804583
-0.04455244 -0.01713187 0.09496002 0.10738202 -0.2158656 -0.14658973 -0.18062541 0.005988041
-0.052116204 -0.00045466045 -0.23924716 -0.16266689 -0.38021672 -0.0415837 -0.191031 -0.065814316
-0.19106908 -0.21564654 0.17161745 -0.17726156 -0.25604796 0.06012793 -0.10317593 0.13698721
-0.26123437 -0.123830825 0.0011577802 -0.1359788 -0.12371257 -0.043104973 0.0861732 -0.03187789
0.06816169 -0.031234145 -0.10883455 -0.013667837 -0.13401496 -0.089441724 -0.14384699 -0.039515663
-0.17117405 -0.0072581493 0.0006612997 -0.06559325 -0.264183 0.08664867 0.15800136 -0.006892662
-0.10650141 -0.019471593 -0.048903596 -0.012130899 -0.16362457 -0.18364084 -0.07171356 -0.105958134
